…
I0124 21:07:27.391903   449 solver.cpp:77] Creating training net from train_net file: ./alexnet-train.prototxt
I0124 21:07:27.392200   449 net.cpp:51] Initializing net from parameters: 
name: "AlexNet-train-dynamic-fcLayer"
state {
  phase: TRAIN
  level: 0
  stage: ""
}
layer {
  name: "data"
  type: "ImageData"
  top: "data"
  top: "label"
  transform_param {
    scale: 0.0039215689
    mirror: true
    crop_size: 224
    mean_file: "../../data/1/256_train_mean.binaryproto"
  }
  image_data_param {
    source: "../../data/1/train_1.txt"
    batch_size: 32
    shuffle: true
    new_height: 256
    new_width: 256
    root_folder: "../../data/faces/"
  }
}
layer {
  name: "conv1"
  type: "Convolution"
  bottom: "data"
  top: "conv1"
  param {
    name: "conv1_w"
    lr_mult: 1
    decay_mult: 1
  }
  param {
    name: "conv1_b"
    lr_mult: 2
    decay_mult: 0
  }
  convolution_param {
    num_output: 96
    kernel_size: 11
    stride: 4
    weight_filler {
      type: "msra"
      std: 0.01
    }
    bias_filler {
      type: "constant"
      value: 0
    }
  }
}
layer {
  name: "bn_conv1"
  type: "BatchNorm"
  bottom: "conv1"
  top: "conv1"
  batch_norm_param {
    moving_average_fraction: 0.9
  }
}
layer {
  name: "scale_conv1"
  type: "Scale"
  bottom: "conv1"
  top: "conv1"
  scale_param {
    bias_term: true
  }
}
layer {
  name: "relu1"
  type: "ReLU"
  bottom: "conv1"
  top: "conv1"
}
layer {
  name: "pool1"
  type: "Pooling"
  bottom: "conv1"
  top: "pool1"
  pooling_param {
    pool: MAX
    kernel_size: 3
    stride: 2
  }
}
layer {
  name: "conv2"
  type: "Convolution"
  bottom: "pool1"
  top: "conv2"
  param {
    name: "conv2_w"
    lr_mult: 1
    decay_mult: 1
  }
  param {
    name: "conv2_b"
    lr_mult: 2
    decay_mult: 0
  }
  convolution_param {
    num_output: 256
    pad: 2
    kernel_size: 5
    group: 2
    weight_filler {
      type: "msra"
      std: 0.01
    }
    bias_filler {
      type: "constant"
      value: 0.1
    }
  }
}
layer {
  name: "bn_conv2"
  type: "BatchNorm"
  bottom: "conv2"
  top: "conv2"
  batch_norm_param {
    moving_average_fraction: 0.9
  }
}
layer {
  name: "scale_conv2"
  type: "Scale"
  bottom: "conv2"
  top: "conv2"
  scale_param {
    bias_term: true
  }
}
layer {
  name: "relu2"
  type: "ReLU"
  bottom: "conv2"
  top: "conv2"
}
layer {
  name: "pool2"
  type: "Pooling"
  bottom: "conv2"
  top: "pool2"
  pooling_param {
    pool: MAX
    kernel_size: 3
    stride: 2
  }
}
layer {
  name: "conv3"
  type: "Convolution"
  bottom: "pool2"
  top: "conv3"
  param {
    name: "conv3_w"
    lr_mult: 1
    decay_mult: 1
  }
  param {
    name: "conv3_b"
    lr_mult: 2
    decay_mult: 0
  }
  convolution_param {
    num_output: 384
    pad: 1
    kernel_size: 3
    weight_filler {
      type: "msra"
      std: 0.01
    }
    bias_filler {
      type: "constant"
      value: 0
    }
  }
}
layer {
  name: "bn_conv3"
  type: "BatchNorm"
  bottom: "conv3"
  top: "conv3"
  batch_norm_param {
    moving_average_fraction: 0.9
  }
}
layer {
  name: "scale_conv3"
  type: "Scale"
  bottom: "conv3"
  top: "conv3"
  scale_param {
    bias_term: true
  }
}
layer {
  name: "relu3"
  type: "ReLU"
  bottom: "conv3"
  top: "conv3"
}
layer {
  name: "conv4"
  type: "Convolution"
  bottom: "conv3"
  top: "conv4"
  param {
    name: "conv4_w"
    lr_mult: 1
    decay_mult: 1
  }
  param {
    name: "conv4_b"
    lr_mult: 2
    decay_mult: 0
  }
  convolution_param {
    num_output: 384
    pad: 1
    kernel_size: 3
    group: 2
    weight_filler {
      type: "msra"
      std: 0.01
    }
    bias_filler {
      type: "constant"
      value: 0.1
    }
  }
}
layer {
  name: "bn_conv4"
  type: "BatchNorm"
  bottom: "conv4"
  top: "conv4"
  batch_norm_param {
    moving_average_fraction: 0.9
  }
}
layer {
  name: "scale_conv4"
  type: "Scale"
  bottom: "conv4"
  top: "conv4"
  scale_param {
    bias_term: true
  }
}
layer {
  name: "relu4"
  type: "ReLU"
  bottom: "conv4"
  top: "conv4"
}
layer {
  name: "conv5"
  type: "Convolution"
  bottom: "conv4"
  top: "conv5"
  param {
    name: "conv5_w"
    lr_mult: 1
    decay_mult: 1
  }
  param {
    name: "conv5_b"
    lr_mult: 2
    decay_mult: 0
  }
  convolution_param {
    num_output: 256
    pad: 1
    kernel_size: 3
    group: 2
    weight_filler {
      type: "msra"
      std: 0.01
    }
    bias_filler {
      type: "constant"
      value: 0.1
    }
  }
}
layer {
  name: "bn_conv5"
  type: "BatchNorm"
  bottom: "conv5"
  top: "conv5"
  batch_norm_param {
    moving_average_fraction: 0.9
  }
}
layer {
  name: "scale_conv5"
  type: "Scale"
  bottom: "conv5"
  top: "conv5"
  scale_param {
    bias_term: true
  }
}
layer {
  name: "relu5"
  type: "ReLU"
  bottom: "conv5"
  top: "conv5"
}
layer {
  name: "pool5"
  type: "Pooling"
  bottom: "conv5"
  top: "pool5"
  pooling_param {
    pool: MAX
    kernel_size: 3
    stride: 2
  }
}
layer {
  name: "feat0"
  type: "Convolution"
  bottom: "pool5"
  top: "feat0"
  param {
    lr_mult: 1
    decay_mult: 1
  }
  param {
    lr_mult: 2
    decay_mult: 0
  }
  convolution_param {
    num_output: 512
    kernel_size: 6
    weight_filler {
      type: "msra"
    }
    bias_filler {
      type: "constant"
      value: 0.1
    }
  }
}
layer {
  name: "bn_feat0"
  type: "BatchNorm"
  bottom: "feat0"
  top: "feat0"
  batch_norm_param {
    moving_average_fraction: 0.9
  }
}
layer {
  name: "scale_feat0"
  type: "Scale"
  bottom: "feat0"
  top: "feat0"
  scale_param {
    bias_term: true
  }
}
layer {
  name: "relu_feat0"
  type: "ReLU"
  bottom: "feat0"
  top: "feat0"
}
layer {
  name: "feat1"
  type: "Convolution"
  bottom: "feat0"
  top: "feat1"
  param {
    lr_mult: 1
    decay_mult: 1
  }
  param {
    lr_mult: 2
    decay_mult: 0
  }
  convolution_param {
    num_output: 1
    kernel_size: 1
    weight_filler {
      type: "msra"
    }
    bias_filler {
      type: "constant"
      value: 0.1
    }
  }
}
layer {
  name: "eucli_loss"
  type: "EuclideanLoss"
  bottom: "feat1"
  bottom: "label"
  top: "eucli_loss"
}
I0124 21:07:27.392380   449 layer_factory.hpp:77] Creating layer data
I0124 21:07:27.392403   449 net.cpp:84] Creating Layer data
I0124 21:07:27.392410   449 net.cpp:380] data -> data
I0124 21:07:27.392421   449 net.cpp:380] data -> label
I0124 21:07:27.392434   449 data_transformer.cpp:28] Loading mean file from: ../../data/1/256_train_mean.binaryproto
I0124 21:07:27.394522   449 image_data_layer.cpp:38] Opening file ../../data/1/train_1.txt
I0124 21:07:27.395225   449 image_data_layer.cpp:53] Shuffling data
I0124 21:07:27.395318   449 image_data_layer.cpp:63] A total of 4400 images.
I0124 21:07:27.397683   449 image_data_layer.cpp:90] output data size: 32,3,224,224
I0124 21:07:27.422504   449 net.cpp:122] Setting up data
I0124 21:07:27.422547   449 net.cpp:129] Top shape: 32 3 224 224 (4816896)
I0124 21:07:27.422551   449 net.cpp:129] Top shape: 32 (32)
I0124 21:07:27.422554   449 net.cpp:137] Memory required for data: 19267712
I0124 21:07:27.422561   449 layer_factory.hpp:77] Creating layer conv1
I0124 21:07:27.422577   449 net.cpp:84] Creating Layer conv1
I0124 21:07:27.422582   449 net.cpp:406] conv1 <- data
I0124 21:07:27.422592   449 net.cpp:380] conv1 -> conv1
I0124 21:07:27.987473   449 net.cpp:122] Setting up conv1
I0124 21:07:27.987493   449 net.cpp:129] Top shape: 32 96 54 54 (8957952)
I0124 21:07:27.987496   449 net.cpp:137] Memory required for data: 55099520
I0124 21:07:27.987509   449 layer_factory.hpp:77] Creating layer bn_conv1
I0124 21:07:27.987516   449 net.cpp:84] Creating Layer bn_conv1
I0124 21:07:27.987519   449 net.cpp:406] bn_conv1 <- conv1
I0124 21:07:27.987524   449 net.cpp:367] bn_conv1 -> conv1 (in-place)
I0124 21:07:27.987720   449 net.cpp:122] Setting up bn_conv1
I0124 21:07:27.987727   449 net.cpp:129] Top shape: 32 96 54 54 (8957952)
I0124 21:07:27.987730   449 net.cpp:137] Memory required for data: 90931328
I0124 21:07:27.987740   449 layer_factory.hpp:77] Creating layer scale_conv1
I0124 21:07:27.987746   449 net.cpp:84] Creating Layer scale_conv1
I0124 21:07:27.987749   449 net.cpp:406] scale_conv1 <- conv1
I0124 21:07:27.987752   449 net.cpp:367] scale_conv1 -> conv1 (in-place)
I0124 21:07:27.987812   449 layer_factory.hpp:77] Creating layer scale_conv1
I0124 21:07:27.987958   449 net.cpp:122] Setting up scale_conv1
I0124 21:07:27.987963   449 net.cpp:129] Top shape: 32 96 54 54 (8957952)
I0124 21:07:27.987967   449 net.cpp:137] Memory required for data: 126763136
I0124 21:07:27.987970   449 layer_factory.hpp:77] Creating layer relu1
I0124 21:07:27.987974   449 net.cpp:84] Creating Layer relu1
I0124 21:07:27.987977   449 net.cpp:406] relu1 <- conv1
I0124 21:07:27.987980   449 net.cpp:367] relu1 -> conv1 (in-place)
I0124 21:07:27.989049   449 net.cpp:122] Setting up relu1
I0124 21:07:27.989056   449 net.cpp:129] Top shape: 32 96 54 54 (8957952)
I0124 21:07:27.989059   449 net.cpp:137] Memory required for data: 162594944
I0124 21:07:27.989063   449 layer_factory.hpp:77] Creating layer pool1
I0124 21:07:27.989066   449 net.cpp:84] Creating Layer pool1
I0124 21:07:27.989069   449 net.cpp:406] pool1 <- conv1
I0124 21:07:27.989073   449 net.cpp:380] pool1 -> pool1
I0124 21:07:27.989105   449 net.cpp:122] Setting up pool1
I0124 21:07:27.989110   449 net.cpp:129] Top shape: 32 96 27 27 (2239488)
I0124 21:07:27.989112   449 net.cpp:137] Memory required for data: 171552896
I0124 21:07:27.989115   449 layer_factory.hpp:77] Creating layer conv2
I0124 21:07:27.989121   449 net.cpp:84] Creating Layer conv2
I0124 21:07:27.989125   449 net.cpp:406] conv2 <- pool1
I0124 21:07:27.989127   449 net.cpp:380] conv2 -> conv2
I0124 21:07:28.003218   449 net.cpp:122] Setting up conv2
I0124 21:07:28.003237   449 net.cpp:129] Top shape: 32 256 27 27 (5971968)
I0124 21:07:28.003240   449 net.cpp:137] Memory required for data: 195440768
I0124 21:07:28.003250   449 layer_factory.hpp:77] Creating layer bn_conv2
I0124 21:07:28.003257   449 net.cpp:84] Creating Layer bn_conv2
I0124 21:07:28.003260   449 net.cpp:406] bn_conv2 <- conv2
I0124 21:07:28.003265   449 net.cpp:367] bn_conv2 -> conv2 (in-place)
I0124 21:07:28.003437   449 net.cpp:122] Setting up bn_conv2
I0124 21:07:28.003443   449 net.cpp:129] Top shape: 32 256 27 27 (5971968)
I0124 21:07:28.003444   449 net.cpp:137] Memory required for data: 219328640
I0124 21:07:28.003450   449 layer_factory.hpp:77] Creating layer scale_conv2
I0124 21:07:28.003456   449 net.cpp:84] Creating Layer scale_conv2
I0124 21:07:28.003458   449 net.cpp:406] scale_conv2 <- conv2
I0124 21:07:28.003463   449 net.cpp:367] scale_conv2 -> conv2 (in-place)
I0124 21:07:28.003490   449 layer_factory.hpp:77] Creating layer scale_conv2
I0124 21:07:28.003561   449 net.cpp:122] Setting up scale_conv2
I0124 21:07:28.003566   449 net.cpp:129] Top shape: 32 256 27 27 (5971968)
I0124 21:07:28.003569   449 net.cpp:137] Memory required for data: 243216512
I0124 21:07:28.003574   449 layer_factory.hpp:77] Creating layer relu2
I0124 21:07:28.003593   449 net.cpp:84] Creating Layer relu2
I0124 21:07:28.003597   449 net.cpp:406] relu2 <- conv2
I0124 21:07:28.003602   449 net.cpp:367] relu2 -> conv2 (in-place)
I0124 21:07:28.004781   449 net.cpp:122] Setting up relu2
I0124 21:07:28.004788   449 net.cpp:129] Top shape: 32 256 27 27 (5971968)
I0124 21:07:28.004806   449 net.cpp:137] Memory required for data: 267104384
I0124 21:07:28.004808   449 layer_factory.hpp:77] Creating layer pool2
I0124 21:07:28.004814   449 net.cpp:84] Creating Layer pool2
I0124 21:07:28.004817   449 net.cpp:406] pool2 <- conv2
I0124 21:07:28.004822   449 net.cpp:380] pool2 -> pool2
I0124 21:07:28.004863   449 net.cpp:122] Setting up pool2
I0124 21:07:28.004868   449 net.cpp:129] Top shape: 32 256 13 13 (1384448)
I0124 21:07:28.004869   449 net.cpp:137] Memory required for data: 272642176
I0124 21:07:28.004905   449 layer_factory.hpp:77] Creating layer conv3
I0124 21:07:28.004927   449 net.cpp:84] Creating Layer conv3
I0124 21:07:28.004930   449 net.cpp:406] conv3 <- pool2
I0124 21:07:28.004948   449 net.cpp:380] conv3 -> conv3
I0124 21:07:28.014097   449 net.cpp:122] Setting up conv3
I0124 21:07:28.014127   449 net.cpp:129] Top shape: 32 384 13 13 (2076672)
I0124 21:07:28.014130   449 net.cpp:137] Memory required for data: 280948864
I0124 21:07:28.014137   449 layer_factory.hpp:77] Creating layer bn_conv3
I0124 21:07:28.014142   449 net.cpp:84] Creating Layer bn_conv3
I0124 21:07:28.014145   449 net.cpp:406] bn_conv3 <- conv3
I0124 21:07:28.014149   449 net.cpp:367] bn_conv3 -> conv3 (in-place)
I0124 21:07:28.014288   449 net.cpp:122] Setting up bn_conv3
I0124 21:07:28.014294   449 net.cpp:129] Top shape: 32 384 13 13 (2076672)
I0124 21:07:28.014297   449 net.cpp:137] Memory required for data: 289255552
I0124 21:07:28.014305   449 layer_factory.hpp:77] Creating layer scale_conv3
I0124 21:07:28.014309   449 net.cpp:84] Creating Layer scale_conv3
I0124 21:07:28.014312   449 net.cpp:406] scale_conv3 <- conv3
I0124 21:07:28.014315   449 net.cpp:367] scale_conv3 -> conv3 (in-place)
I0124 21:07:28.014338   449 layer_factory.hpp:77] Creating layer scale_conv3
I0124 21:07:28.014410   449 net.cpp:122] Setting up scale_conv3
I0124 21:07:28.014415   449 net.cpp:129] Top shape: 32 384 13 13 (2076672)
I0124 21:07:28.014417   449 net.cpp:137] Memory required for data: 297562240
I0124 21:07:28.014421   449 layer_factory.hpp:77] Creating layer relu3
I0124 21:07:28.014425   449 net.cpp:84] Creating Layer relu3
I0124 21:07:28.014427   449 net.cpp:406] relu3 <- conv3
I0124 21:07:28.014430   449 net.cpp:367] relu3 -> conv3 (in-place)
I0124 21:07:28.016063   449 net.cpp:122] Setting up relu3
I0124 21:07:28.016072   449 net.cpp:129] Top shape: 32 384 13 13 (2076672)
I0124 21:07:28.016075   449 net.cpp:137] Memory required for data: 305868928
I0124 21:07:28.016078   449 layer_factory.hpp:77] Creating layer conv4
I0124 21:07:28.016085   449 net.cpp:84] Creating Layer conv4
I0124 21:07:28.016088   449 net.cpp:406] conv4 <- conv3
I0124 21:07:28.016093   449 net.cpp:380] conv4 -> conv4
I0124 21:07:28.032611   449 net.cpp:122] Setting up conv4
I0124 21:07:28.032632   449 net.cpp:129] Top shape: 32 384 13 13 (2076672)
I0124 21:07:28.032635   449 net.cpp:137] Memory required for data: 314175616
I0124 21:07:28.032641   449 layer_factory.hpp:77] Creating layer bn_conv4
I0124 21:07:28.032651   449 net.cpp:84] Creating Layer bn_conv4
I0124 21:07:28.032655   449 net.cpp:406] bn_conv4 <- conv4
I0124 21:07:28.032658   449 net.cpp:367] bn_conv4 -> conv4 (in-place)
I0124 21:07:28.032796   449 net.cpp:122] Setting up bn_conv4
I0124 21:07:28.032802   449 net.cpp:129] Top shape: 32 384 13 13 (2076672)
I0124 21:07:28.032805   449 net.cpp:137] Memory required for data: 322482304
I0124 21:07:28.032811   449 layer_factory.hpp:77] Creating layer scale_conv4
I0124 21:07:28.032815   449 net.cpp:84] Creating Layer scale_conv4
I0124 21:07:28.032817   449 net.cpp:406] scale_conv4 <- conv4
I0124 21:07:28.032821   449 net.cpp:367] scale_conv4 -> conv4 (in-place)
I0124 21:07:28.032846   449 layer_factory.hpp:77] Creating layer scale_conv4
I0124 21:07:28.032924   449 net.cpp:122] Setting up scale_conv4
I0124 21:07:28.032930   449 net.cpp:129] Top shape: 32 384 13 13 (2076672)
I0124 21:07:28.032932   449 net.cpp:137] Memory required for data: 330788992
I0124 21:07:28.032936   449 layer_factory.hpp:77] Creating layer relu4
I0124 21:07:28.032941   449 net.cpp:84] Creating Layer relu4
I0124 21:07:28.032943   449 net.cpp:406] relu4 <- conv4
I0124 21:07:28.032948   449 net.cpp:367] relu4 -> conv4 (in-place)
I0124 21:07:28.034070   449 net.cpp:122] Setting up relu4
I0124 21:07:28.034077   449 net.cpp:129] Top shape: 32 384 13 13 (2076672)
I0124 21:07:28.034080   449 net.cpp:137] Memory required for data: 339095680
I0124 21:07:28.034083   449 layer_factory.hpp:77] Creating layer conv5
I0124 21:07:28.034091   449 net.cpp:84] Creating Layer conv5
I0124 21:07:28.034111   449 net.cpp:406] conv5 <- conv4
I0124 21:07:28.034116   449 net.cpp:380] conv5 -> conv5
I0124 21:07:28.040601   449 net.cpp:122] Setting up conv5
I0124 21:07:28.040616   449 net.cpp:129] Top shape: 32 256 13 13 (1384448)
I0124 21:07:28.040619   449 net.cpp:137] Memory required for data: 344633472
I0124 21:07:28.040624   449 layer_factory.hpp:77] Creating layer bn_conv5
I0124 21:07:28.040630   449 net.cpp:84] Creating Layer bn_conv5
I0124 21:07:28.040633   449 net.cpp:406] bn_conv5 <- conv5
I0124 21:07:28.040638   449 net.cpp:367] bn_conv5 -> conv5 (in-place)
I0124 21:07:28.040778   449 net.cpp:122] Setting up bn_conv5
I0124 21:07:28.040784   449 net.cpp:129] Top shape: 32 256 13 13 (1384448)
I0124 21:07:28.040787   449 net.cpp:137] Memory required for data: 350171264
I0124 21:07:28.040796   449 layer_factory.hpp:77] Creating layer scale_conv5
I0124 21:07:28.040801   449 net.cpp:84] Creating Layer scale_conv5
I0124 21:07:28.040803   449 net.cpp:406] scale_conv5 <- conv5
I0124 21:07:28.040807   449 net.cpp:367] scale_conv5 -> conv5 (in-place)
I0124 21:07:28.040834   449 layer_factory.hpp:77] Creating layer scale_conv5
I0124 21:07:28.040912   449 net.cpp:122] Setting up scale_conv5
I0124 21:07:28.040917   449 net.cpp:129] Top shape: 32 256 13 13 (1384448)
I0124 21:07:28.040920   449 net.cpp:137] Memory required for data: 355709056
I0124 21:07:28.040923   449 layer_factory.hpp:77] Creating layer relu5
I0124 21:07:28.040928   449 net.cpp:84] Creating Layer relu5
I0124 21:07:28.040931   449 net.cpp:406] relu5 <- conv5
I0124 21:07:28.040935   449 net.cpp:367] relu5 -> conv5 (in-place)
I0124 21:07:28.041232   449 net.cpp:122] Setting up relu5
I0124 21:07:28.041240   449 net.cpp:129] Top shape: 32 256 13 13 (1384448)
I0124 21:07:28.041242   449 net.cpp:137] Memory required for data: 361246848
I0124 21:07:28.041245   449 layer_factory.hpp:77] Creating layer pool5
I0124 21:07:28.041249   449 net.cpp:84] Creating Layer pool5
I0124 21:07:28.041252   449 net.cpp:406] pool5 <- conv5
I0124 21:07:28.041256   449 net.cpp:380] pool5 -> pool5
I0124 21:07:28.041286   449 net.cpp:122] Setting up pool5
I0124 21:07:28.041291   449 net.cpp:129] Top shape: 32 256 6 6 (294912)
I0124 21:07:28.041294   449 net.cpp:137] Memory required for data: 362426496
I0124 21:07:28.041296   449 layer_factory.hpp:77] Creating layer feat0
I0124 21:07:28.041303   449 net.cpp:84] Creating Layer feat0
I0124 21:07:28.041306   449 net.cpp:406] feat0 <- pool5
I0124 21:07:28.041311   449 net.cpp:380] feat0 -> feat0
I0124 21:07:28.074983   449 net.cpp:122] Setting up feat0
I0124 21:07:28.075001   449 net.cpp:129] Top shape: 32 512 1 1 (16384)
I0124 21:07:28.075004   449 net.cpp:137] Memory required for data: 362492032
I0124 21:07:28.075012   449 layer_factory.hpp:77] Creating layer bn_feat0
I0124 21:07:28.075021   449 net.cpp:84] Creating Layer bn_feat0
I0124 21:07:28.075024   449 net.cpp:406] bn_feat0 <- feat0
I0124 21:07:28.075029   449 net.cpp:367] bn_feat0 -> feat0 (in-place)
I0124 21:07:28.075172   449 net.cpp:122] Setting up bn_feat0
I0124 21:07:28.075177   449 net.cpp:129] Top shape: 32 512 1 1 (16384)
I0124 21:07:28.075181   449 net.cpp:137] Memory required for data: 362557568
I0124 21:07:28.075186   449 layer_factory.hpp:77] Creating layer scale_feat0
I0124 21:07:28.075191   449 net.cpp:84] Creating Layer scale_feat0
I0124 21:07:28.075194   449 net.cpp:406] scale_feat0 <- feat0
I0124 21:07:28.075197   449 net.cpp:367] scale_feat0 -> feat0 (in-place)
I0124 21:07:28.075227   449 layer_factory.hpp:77] Creating layer scale_feat0
I0124 21:07:28.075309   449 net.cpp:122] Setting up scale_feat0
I0124 21:07:28.075314   449 net.cpp:129] Top shape: 32 512 1 1 (16384)
I0124 21:07:28.075316   449 net.cpp:137] Memory required for data: 362623104
I0124 21:07:28.075321   449 layer_factory.hpp:77] Creating layer relu_feat0
I0124 21:07:28.075325   449 net.cpp:84] Creating Layer relu_feat0
I0124 21:07:28.075328   449 net.cpp:406] relu_feat0 <- feat0
I0124 21:07:28.075333   449 net.cpp:367] relu_feat0 -> feat0 (in-place)
I0124 21:07:28.075857   449 net.cpp:122] Setting up relu_feat0
I0124 21:07:28.075865   449 net.cpp:129] Top shape: 32 512 1 1 (16384)
I0124 21:07:28.075870   449 net.cpp:137] Memory required for data: 362688640
I0124 21:07:28.075872   449 layer_factory.hpp:77] Creating layer feat1
I0124 21:07:28.075879   449 net.cpp:84] Creating Layer feat1
I0124 21:07:28.075883   449 net.cpp:406] feat1 <- feat0
I0124 21:07:28.075889   449 net.cpp:380] feat1 -> feat1
I0124 21:07:28.077159   449 net.cpp:122] Setting up feat1
I0124 21:07:28.077167   449 net.cpp:129] Top shape: 32 1 1 1 (32)
I0124 21:07:28.077172   449 net.cpp:137] Memory required for data: 362688768
I0124 21:07:28.077177   449 layer_factory.hpp:77] Creating layer eucli_loss
I0124 21:07:28.077181   449 net.cpp:84] Creating Layer eucli_loss
I0124 21:07:28.077185   449 net.cpp:406] eucli_loss <- feat1
I0124 21:07:28.077189   449 net.cpp:406] eucli_loss <- label
I0124 21:07:28.077194   449 net.cpp:380] eucli_loss -> eucli_loss
…
I0124 21:16:00.066352   449 upgrade_proto.cpp:67] Attempting to upgrade input file specified using deprecated input fields: ./alexnet-deploy.prototxt
I0124 21:16:00.066361   449 upgrade_proto.cpp:70] Successfully upgraded file specified using deprecated input fields.
W0124 21:16:00.066365   449 upgrade_proto.cpp:72] Note that future Caffe releases will only support input layers and not input fields.
I0124 21:16:00.066493   449 net.cpp:51] Initializing net from parameters: 
name: "AlexNet-dynamic"
state {
  phase: TEST
  level: 0
}
layer {
  name: "input"
  type: "Input"
  top: "data"
  input_param {
    shape {
      dim: 1
      dim: 3
      dim: 224
      dim: 224
    }
  }
}
layer {
  name: "conv1"
  type: "Convolution"
  bottom: "data"
  top: "conv1"
  param {
    name: "conv1_w"
    lr_mult: 1
    decay_mult: 1
  }
  param {
    name: "conv1_b"
    lr_mult: 2
    decay_mult: 0
  }
  convolution_param {
    num_output: 96
    kernel_size: 11
    stride: 4
    weight_filler {
      type: "msra"
      std: 0.01
    }
    bias_filler {
      type: "constant"
      value: 0
    }
  }
}
layer {
  name: "bn_conv1"
  type: "BatchNorm"
  bottom: "conv1"
  top: "conv1"
  batch_norm_param {
    moving_average_fraction: 0.9
  }
}
layer {
  name: "scale_conv1"
  type: "Scale"
  bottom: "conv1"
  top: "conv1"
  scale_param {
    bias_term: true
  }
}
layer {
  name: "relu1"
  type: "ReLU"
  bottom: "conv1"
  top: "conv1"
}
layer {
  name: "pool1"
  type: "Pooling"
  bottom: "conv1"
  top: "pool1"
  pooling_param {
    pool: MAX
    kernel_size: 3
    stride: 2
  }
}
layer {
  name: "conv2"
  type: "Convolution"
  bottom: "pool1"
  top: "conv2"
  param {
    name: "conv2_w"
    lr_mult: 1
    decay_mult: 1
  }
  param {
    name: "conv2_b"
    lr_mult: 2
    decay_mult: 0
  }
  convolution_param {
    num_output: 256
    pad: 2
    kernel_size: 5
    group: 2
    weight_filler {
      type: "msra"
      std: 0.01
    }
    bias_filler {
      type: "constant"
      value: 0.1
    }
  }
}
layer {
  name: "bn_conv2"
  type: "BatchNorm"
  bottom: "conv2"
  top: "conv2"
  batch_norm_param {
    moving_average_fraction: 0.9
  }
}
layer {
  name: "scale_conv2"
  type: "Scale"
  bottom: "conv2"
  top: "conv2"
  scale_param {
    bias_term: true
  }
}
layer {
  name: "relu2"
  type: "ReLU"
  bottom: "conv2"
  top: "conv2"
}
layer {
  name: "pool2"
  type: "Pooling"
  bottom: "conv2"
  top: "pool2"
  pooling_param {
    pool: MAX
    kernel_size: 3
    stride: 2
  }
}
layer {
  name: "conv3"
  type: "Convolution"
  bottom: "pool2"
  top: "conv3"
  param {
    name: "conv3_w"
    lr_mult: 1
    decay_mult: 1
  }
  param {
    name: "conv3_b"
    lr_mult: 2
    decay_mult: 0
  }
  convolution_param {
    num_output: 384
    pad: 1
    kernel_size: 3
    weight_filler {
      type: "msra"
      std: 0.01
    }
    bias_filler {
      type: "constant"
      value: 0
    }
  }
}
layer {
  name: "bn_conv3"
  type: "BatchNorm"
  bottom: "conv3"
  top: "conv3"
  batch_norm_param {
    moving_average_fraction: 0.9
  }
}
layer {
  name: "scale_conv3"
  type: "Scale"
  bottom: "conv3"
  top: "conv3"
  scale_param {
    bias_term: true
  }
}
layer {
  name: "relu3"
  type: "ReLU"
  bottom: "conv3"
  top: "conv3"
}
layer {
  name: "conv4"
  type: "Convolution"
  bottom: "conv3"
  top: "conv4"
  param {
    name: "conv4_w"
    lr_mult: 1
    decay_mult: 1
  }
  param {
    name: "conv4_b"
    lr_mult: 2
    decay_mult: 0
  }
  convolution_param {
    num_output: 384
    pad: 1
    kernel_size: 3
    group: 2
    weight_filler {
      type: "msra"
      std: 0.01
    }
    bias_filler {
      type: "constant"
      value: 0.1
    }
  }
}
layer {
  name: "bn_conv4"
  type: "BatchNorm"
  bottom: "conv4"
  top: "conv4"
  batch_norm_param {
    moving_average_fraction: 0.9
  }
}
layer {
  name: "scale_conv4"
  type: "Scale"
  bottom: "conv4"
  top: "conv4"
  scale_param {
    bias_term: true
  }
}
layer {
  name: "relu4"
  type: "ReLU"
  bottom: "conv4"
  top: "conv4"
}
layer {
  name: "conv5"
  type: "Convolution"
  bottom: "conv4"
  top: "conv5"
  param {
    name: "conv5_w"
    lr_mult: 1
    decay_mult: 1
  }
  param {
    name: "conv5_b"
    lr_mult: 2
    decay_mult: 0
  }
  convolution_param {
    num_output: 256
    pad: 1
    kernel_size: 3
    group: 2
    weight_filler {
      type: "msra"
      std: 0.01
    }
    bias_filler {
      type: "constant"
      value: 0.1
    }
  }
}
layer {
  name: "bn_conv5"
  type: "BatchNorm"
  bottom: "conv5"
  top: "conv5"
  batch_norm_param {
    moving_average_fraction: 0.9
  }
}
layer {
  name: "scale_conv5"
  type: "Scale"
  bottom: "conv5"
  top: "conv5"
  scale_param {
    bias_term: true
  }
}
layer {
  name: "relu5"
  type: "ReLU"
  bottom: "conv5"
  top: "conv5"
}
layer {
  name: "pool5"
  type: "Pooling"
  bottom: "conv5"
  top: "pool5"
  pooling_param {
    pool: MAX
    kernel_size: 3
    stride: 2
  }
}
layer {
  name: "feat0"
  type: "Convolution"
  bottom: "pool5"
  top: "feat0"
  param {
    lr_mult: 1
    decay_mult: 1
  }
  param {
    lr_mult: 2
    decay_mult: 0
  }
  convolution_param {
    num_output: 512
    kernel_size: 6
    weight_filler {
      type: "msra"
    }
    bias_filler {
      type: "constant"
      value: 0.1
    }
  }
}
layer {
  name: "bn_feat0"
  type: "BatchNorm"
  bottom: "feat0"
  top: "feat0"
  batch_norm_param {
    moving_average_fraction: 0.9
  }
}
layer {
  name: "scale_feat0"
  type: "Scale"
  bottom: "feat0"
  top: "feat0"
  scale_param {
    bias_term: true
  }
}
layer {
  name: "relu_feat0"
  type: "ReLU"
  bottom: "feat0"
  top: "feat0"
}
layer {
  name: "feat1"
  type: "Convolution"
  bottom: "feat0"
  top: "feat1"
  param {
    lr_mult: 1
    decay_mult: 1
  }
  param {
    lr_mult: 2
    decay_mult: 0
  }
  convolution_param {
    num_output: 1
    kernel_size: 1
    weight_filler {
      type: "msra"
    }
    bias_filler {
      type: "constant"
      value: 0.1
    }
  }
}
I0124 21:16:00.066545   449 layer_factory.hpp:77] Creating layer input
I0124 21:16:00.066551   449 net.cpp:84] Creating Layer input
I0124 21:16:00.066555   449 net.cpp:380] input -> data
I0124 21:16:00.066627   449 net.cpp:122] Setting up input
I0124 21:16:00.066632   449 net.cpp:129] Top shape: 1 3 224 224 (150528)
I0124 21:16:00.066634   449 net.cpp:137] Memory required for data: 602112
I0124 21:16:00.066637   449 layer_factory.hpp:77] Creating layer conv1
I0124 21:16:00.066642   449 net.cpp:84] Creating Layer conv1
I0124 21:16:00.066644   449 net.cpp:406] conv1 <- data
I0124 21:16:00.066648   449 net.cpp:380] conv1 -> conv1
I0124 21:16:00.069924   449 net.cpp:122] Setting up conv1
I0124 21:16:00.069932   449 net.cpp:129] Top shape: 1 96 54 54 (279936)
I0124 21:16:00.069936   449 net.cpp:137] Memory required for data: 1721856
I0124 21:16:00.069941   449 layer_factory.hpp:77] Creating layer bn_conv1
I0124 21:16:00.069945   449 net.cpp:84] Creating Layer bn_conv1
I0124 21:16:00.069947   449 net.cpp:406] bn_conv1 <- conv1
I0124 21:16:00.069950   449 net.cpp:367] bn_conv1 -> conv1 (in-place)
I0124 21:16:00.070152   449 net.cpp:122] Setting up bn_conv1
I0124 21:16:00.070155   449 net.cpp:129] Top shape: 1 96 54 54 (279936)
I0124 21:16:00.070158   449 net.cpp:137] Memory required for data: 2841600
I0124 21:16:00.070164   449 layer_factory.hpp:77] Creating layer scale_conv1
I0124 21:16:00.070168   449 net.cpp:84] Creating Layer scale_conv1
I0124 21:16:00.070170   449 net.cpp:406] scale_conv1 <- conv1
I0124 21:16:00.070173   449 net.cpp:367] scale_conv1 -> conv1 (in-place)
I0124 21:16:00.070204   449 layer_factory.hpp:77] Creating layer scale_conv1
I0124 21:16:00.070293   449 net.cpp:122] Setting up scale_conv1
I0124 21:16:00.070297   449 net.cpp:129] Top shape: 1 96 54 54 (279936)
I0124 21:16:00.070300   449 net.cpp:137] Memory required for data: 3961344
I0124 21:16:00.070303   449 layer_factory.hpp:77] Creating layer relu1
I0124 21:16:00.070307   449 net.cpp:84] Creating Layer relu1
I0124 21:16:00.070308   449 net.cpp:406] relu1 <- conv1
I0124 21:16:00.070312   449 net.cpp:367] relu1 -> conv1 (in-place)
I0124 21:16:00.072051   449 net.cpp:122] Setting up relu1
I0124 21:16:00.072055   449 net.cpp:129] Top shape: 1 96 54 54 (279936)
I0124 21:16:00.072057   449 net.cpp:137] Memory required for data: 5081088
I0124 21:16:00.072059   449 layer_factory.hpp:77] Creating layer pool1
I0124 21:16:00.072063   449 net.cpp:84] Creating Layer pool1
I0124 21:16:00.072064   449 net.cpp:406] pool1 <- conv1
I0124 21:16:00.072067   449 net.cpp:380] pool1 -> pool1
I0124 21:16:00.072100   449 net.cpp:122] Setting up pool1
I0124 21:16:00.072103   449 net.cpp:129] Top shape: 1 96 27 27 (69984)
I0124 21:16:00.072105   449 net.cpp:137] Memory required for data: 5361024
I0124 21:16:00.072108   449 layer_factory.hpp:77] Creating layer conv2
I0124 21:16:00.072113   449 net.cpp:84] Creating Layer conv2
I0124 21:16:00.072114   449 net.cpp:406] conv2 <- pool1
I0124 21:16:00.072118   449 net.cpp:380] conv2 -> conv2
I0124 21:16:00.079309   449 net.cpp:122] Setting up conv2
I0124 21:16:00.079332   449 net.cpp:129] Top shape: 1 256 27 27 (186624)
I0124 21:16:00.079335   449 net.cpp:137] Memory required for data: 6107520
I0124 21:16:00.079340   449 layer_factory.hpp:77] Creating layer bn_conv2
I0124 21:16:00.079345   449 net.cpp:84] Creating Layer bn_conv2
I0124 21:16:00.079349   449 net.cpp:406] bn_conv2 <- conv2
I0124 21:16:00.079351   449 net.cpp:367] bn_conv2 -> conv2 (in-place)
I0124 21:16:00.079514   449 net.cpp:122] Setting up bn_conv2
I0124 21:16:00.079519   449 net.cpp:129] Top shape: 1 256 27 27 (186624)
I0124 21:16:00.079520   449 net.cpp:137] Memory required for data: 6854016
I0124 21:16:00.079525   449 layer_factory.hpp:77] Creating layer scale_conv2
I0124 21:16:00.079530   449 net.cpp:84] Creating Layer scale_conv2
I0124 21:16:00.079531   449 net.cpp:406] scale_conv2 <- conv2
I0124 21:16:00.079533   449 net.cpp:367] scale_conv2 -> conv2 (in-place)
I0124 21:16:00.079563   449 layer_factory.hpp:77] Creating layer scale_conv2
I0124 21:16:00.079646   449 net.cpp:122] Setting up scale_conv2
I0124 21:16:00.079650   449 net.cpp:129] Top shape: 1 256 27 27 (186624)
I0124 21:16:00.079653   449 net.cpp:137] Memory required for data: 7600512
I0124 21:16:00.079655   449 layer_factory.hpp:77] Creating layer relu2
I0124 21:16:00.079658   449 net.cpp:84] Creating Layer relu2
I0124 21:16:00.079660   449 net.cpp:406] relu2 <- conv2
I0124 21:16:00.079663   449 net.cpp:367] relu2 -> conv2 (in-place)
I0124 21:16:00.079921   449 net.cpp:122] Setting up relu2
I0124 21:16:00.079926   449 net.cpp:129] Top shape: 1 256 27 27 (186624)
I0124 21:16:00.079928   449 net.cpp:137] Memory required for data: 8347008
I0124 21:16:00.079931   449 layer_factory.hpp:77] Creating layer pool2
I0124 21:16:00.079934   449 net.cpp:84] Creating Layer pool2
I0124 21:16:00.079936   449 net.cpp:406] pool2 <- conv2
I0124 21:16:00.079939   449 net.cpp:380] pool2 -> pool2
I0124 21:16:00.079972   449 net.cpp:122] Setting up pool2
I0124 21:16:00.079975   449 net.cpp:129] Top shape: 1 256 13 13 (43264)
I0124 21:16:00.079977   449 net.cpp:137] Memory required for data: 8520064
I0124 21:16:00.079979   449 layer_factory.hpp:77] Creating layer conv3
I0124 21:16:00.079984   449 net.cpp:84] Creating Layer conv3
I0124 21:16:00.079987   449 net.cpp:406] conv3 <- pool2
I0124 21:16:00.079989   449 net.cpp:380] conv3 -> conv3
I0124 21:16:00.087659   449 net.cpp:122] Setting up conv3
I0124 21:16:00.087673   449 net.cpp:129] Top shape: 1 384 13 13 (64896)
I0124 21:16:00.087676   449 net.cpp:137] Memory required for data: 8779648
I0124 21:16:00.087680   449 layer_factory.hpp:77] Creating layer bn_conv3
I0124 21:16:00.087687   449 net.cpp:84] Creating Layer bn_conv3
I0124 21:16:00.087689   449 net.cpp:406] bn_conv3 <- conv3
I0124 21:16:00.087692   449 net.cpp:367] bn_conv3 -> conv3 (in-place)
I0124 21:16:00.087851   449 net.cpp:122] Setting up bn_conv3
I0124 21:16:00.087853   449 net.cpp:129] Top shape: 1 384 13 13 (64896)
I0124 21:16:00.087857   449 net.cpp:137] Memory required for data: 9039232
I0124 21:16:00.087863   449 layer_factory.hpp:77] Creating layer scale_conv3
I0124 21:16:00.087867   449 net.cpp:84] Creating Layer scale_conv3
I0124 21:16:00.087869   449 net.cpp:406] scale_conv3 <- conv3
I0124 21:16:00.087872   449 net.cpp:367] scale_conv3 -> conv3 (in-place)
I0124 21:16:00.087899   449 layer_factory.hpp:77] Creating layer scale_conv3
I0124 21:16:00.087985   449 net.cpp:122] Setting up scale_conv3
I0124 21:16:00.087990   449 net.cpp:129] Top shape: 1 384 13 13 (64896)
I0124 21:16:00.087991   449 net.cpp:137] Memory required for data: 9298816
I0124 21:16:00.087994   449 layer_factory.hpp:77] Creating layer relu3
I0124 21:16:00.087998   449 net.cpp:84] Creating Layer relu3
I0124 21:16:00.088001   449 net.cpp:406] relu3 <- conv3
I0124 21:16:00.088003   449 net.cpp:367] relu3 -> conv3 (in-place)
I0124 21:16:00.088270   449 net.cpp:122] Setting up relu3
I0124 21:16:00.088275   449 net.cpp:129] Top shape: 1 384 13 13 (64896)
I0124 21:16:00.088277   449 net.cpp:137] Memory required for data: 9558400
I0124 21:16:00.088300   449 layer_factory.hpp:77] Creating layer conv4
I0124 21:16:00.088306   449 net.cpp:84] Creating Layer conv4
I0124 21:16:00.088308   449 net.cpp:406] conv4 <- conv3
I0124 21:16:00.088312   449 net.cpp:380] conv4 -> conv4
I0124 21:16:00.095466   449 net.cpp:122] Setting up conv4
I0124 21:16:00.095477   449 net.cpp:129] Top shape: 1 384 13 13 (64896)
I0124 21:16:00.095480   449 net.cpp:137] Memory required for data: 9817984
I0124 21:16:00.095485   449 layer_factory.hpp:77] Creating layer bn_conv4
I0124 21:16:00.095494   449 net.cpp:84] Creating Layer bn_conv4
I0124 21:16:00.095495   449 net.cpp:406] bn_conv4 <- conv4
I0124 21:16:00.095499   449 net.cpp:367] bn_conv4 -> conv4 (in-place)
I0124 21:16:00.095667   449 net.cpp:122] Setting up bn_conv4
I0124 21:16:00.095671   449 net.cpp:129] Top shape: 1 384 13 13 (64896)
I0124 21:16:00.095674   449 net.cpp:137] Memory required for data: 10077568
I0124 21:16:00.095677   449 layer_factory.hpp:77] Creating layer scale_conv4
I0124 21:16:00.095681   449 net.cpp:84] Creating Layer scale_conv4
I0124 21:16:00.095685   449 net.cpp:406] scale_conv4 <- conv4
I0124 21:16:00.095686   449 net.cpp:367] scale_conv4 -> conv4 (in-place)
I0124 21:16:00.095713   449 layer_factory.hpp:77] Creating layer scale_conv4
I0124 21:16:00.095805   449 net.cpp:122] Setting up scale_conv4
I0124 21:16:00.095809   449 net.cpp:129] Top shape: 1 384 13 13 (64896)
I0124 21:16:00.095811   449 net.cpp:137] Memory required for data: 10337152
I0124 21:16:00.095814   449 layer_factory.hpp:77] Creating layer relu4
I0124 21:16:00.095819   449 net.cpp:84] Creating Layer relu4
I0124 21:16:00.095821   449 net.cpp:406] relu4 <- conv4
I0124 21:16:00.095824   449 net.cpp:367] relu4 -> conv4 (in-place)
I0124 21:16:00.096279   449 net.cpp:122] Setting up relu4
I0124 21:16:00.096287   449 net.cpp:129] Top shape: 1 384 13 13 (64896)
I0124 21:16:00.096288   449 net.cpp:137] Memory required for data: 10596736
I0124 21:16:00.096290   449 layer_factory.hpp:77] Creating layer conv5
I0124 21:16:00.096298   449 net.cpp:84] Creating Layer conv5
I0124 21:16:00.096300   449 net.cpp:406] conv5 <- conv4
I0124 21:16:00.096305   449 net.cpp:380] conv5 -> conv5
I0124 21:16:00.102277   449 net.cpp:122] Setting up conv5
I0124 21:16:00.102290   449 net.cpp:129] Top shape: 1 256 13 13 (43264)
I0124 21:16:00.102293   449 net.cpp:137] Memory required for data: 10769792
I0124 21:16:00.102299   449 layer_factory.hpp:77] Creating layer bn_conv5
I0124 21:16:00.102308   449 net.cpp:84] Creating Layer bn_conv5
I0124 21:16:00.102309   449 net.cpp:406] bn_conv5 <- conv5
I0124 21:16:00.102314   449 net.cpp:367] bn_conv5 -> conv5 (in-place)
I0124 21:16:00.102488   449 net.cpp:122] Setting up bn_conv5
I0124 21:16:00.102491   449 net.cpp:129] Top shape: 1 256 13 13 (43264)
I0124 21:16:00.102494   449 net.cpp:137] Memory required for data: 10942848
I0124 21:16:00.102502   449 layer_factory.hpp:77] Creating layer scale_conv5
I0124 21:16:00.102507   449 net.cpp:84] Creating Layer scale_conv5
I0124 21:16:00.102509   449 net.cpp:406] scale_conv5 <- conv5
I0124 21:16:00.102511   449 net.cpp:367] scale_conv5 -> conv5 (in-place)
I0124 21:16:00.102545   449 layer_factory.hpp:77] Creating layer scale_conv5
I0124 21:16:00.102638   449 net.cpp:122] Setting up scale_conv5
I0124 21:16:00.102641   449 net.cpp:129] Top shape: 1 256 13 13 (43264)
I0124 21:16:00.102643   449 net.cpp:137] Memory required for data: 11115904
I0124 21:16:00.102645   449 layer_factory.hpp:77] Creating layer relu5
I0124 21:16:00.102650   449 net.cpp:84] Creating Layer relu5
I0124 21:16:00.102653   449 net.cpp:406] relu5 <- conv5
I0124 21:16:00.102655   449 net.cpp:367] relu5 -> conv5 (in-place)
I0124 21:16:00.102977   449 net.cpp:122] Setting up relu5
I0124 21:16:00.102983   449 net.cpp:129] Top shape: 1 256 13 13 (43264)
I0124 21:16:00.102985   449 net.cpp:137] Memory required for data: 11288960
I0124 21:16:00.102988   449 layer_factory.hpp:77] Creating layer pool5
I0124 21:16:00.102993   449 net.cpp:84] Creating Layer pool5
I0124 21:16:00.102995   449 net.cpp:406] pool5 <- conv5
I0124 21:16:00.103018   449 net.cpp:380] pool5 -> pool5
I0124 21:16:00.103056   449 net.cpp:122] Setting up pool5
I0124 21:16:00.103060   449 net.cpp:129] Top shape: 1 256 6 6 (9216)
I0124 21:16:00.103063   449 net.cpp:137] Memory required for data: 11325824
I0124 21:16:00.103065   449 layer_factory.hpp:77] Creating layer feat0
I0124 21:16:00.103071   449 net.cpp:84] Creating Layer feat0
I0124 21:16:00.103072   449 net.cpp:406] feat0 <- pool5
I0124 21:16:00.103077   449 net.cpp:380] feat0 -> feat0
I0124 21:16:00.136533   449 net.cpp:122] Setting up feat0
I0124 21:16:00.136546   449 net.cpp:129] Top shape: 1 512 1 1 (512)
I0124 21:16:00.136548   449 net.cpp:137] Memory required for data: 11327872
I0124 21:16:00.136554   449 layer_factory.hpp:77] Creating layer bn_feat0
I0124 21:16:00.136561   449 net.cpp:84] Creating Layer bn_feat0
I0124 21:16:00.136564   449 net.cpp:406] bn_feat0 <- feat0
I0124 21:16:00.136567   449 net.cpp:367] bn_feat0 -> feat0 (in-place)
I0124 21:16:00.136731   449 net.cpp:122] Setting up bn_feat0
I0124 21:16:00.136735   449 net.cpp:129] Top shape: 1 512 1 1 (512)
I0124 21:16:00.136737   449 net.cpp:137] Memory required for data: 11329920
I0124 21:16:00.136741   449 layer_factory.hpp:77] Creating layer scale_feat0
I0124 21:16:00.136745   449 net.cpp:84] Creating Layer scale_feat0
I0124 21:16:00.136747   449 net.cpp:406] scale_feat0 <- feat0
I0124 21:16:00.136751   449 net.cpp:367] scale_feat0 -> feat0 (in-place)
I0124 21:16:00.136777   449 layer_factory.hpp:77] Creating layer scale_feat0
I0124 21:16:00.136873   449 net.cpp:122] Setting up scale_feat0
I0124 21:16:00.136875   449 net.cpp:129] Top shape: 1 512 1 1 (512)
I0124 21:16:00.136878   449 net.cpp:137] Memory required for data: 11331968
I0124 21:16:00.136880   449 layer_factory.hpp:77] Creating layer relu_feat0
I0124 21:16:00.136884   449 net.cpp:84] Creating Layer relu_feat0
I0124 21:16:00.136886   449 net.cpp:406] relu_feat0 <- feat0
I0124 21:16:00.136888   449 net.cpp:367] relu_feat0 -> feat0 (in-place)
I0124 21:16:00.137238   449 net.cpp:122] Setting up relu_feat0
I0124 21:16:00.137245   449 net.cpp:129] Top shape: 1 512 1 1 (512)
I0124 21:16:00.137246   449 net.cpp:137] Memory required for data: 11334016
I0124 21:16:00.137248   449 layer_factory.hpp:77] Creating layer feat1
I0124 21:16:00.137254   449 net.cpp:84] Creating Layer feat1
I0124 21:16:00.137257   449 net.cpp:406] feat1 <- feat0
I0124 21:16:00.137261   449 net.cpp:380] feat1 -> feat1
I0124 21:16:00.140820   449 net.cpp:122] Setting up feat1
I0124 21:16:00.140827   449 net.cpp:129] Top shape: 1 1 1 1 (1)
I0124 21:16:00.140830   449 net.cpp:137] Memory required for data: 11334020
I0124 21:16:00.140833   449 net.cpp:200] feat1 does not need backward computation.
I0124 21:16:00.140836   449 net.cpp:200] relu_feat0 does not need backward computation.
I0124 21:16:00.140837   449 net.cpp:200] scale_feat0 does not need backward computation.
I0124 21:16:00.140839   449 net.cpp:200] bn_feat0 does not need backward computation.
…
