…
I0210 16:36:17.509004 16731 net.cpp:51] Initializing net from parameters: 
name: "AlexNet-train-ignet"
state {
  phase: TRAIN
  level: 0
  stage: ""
}
layer {
  name: "data"
  type: "ImageData"
  top: "data"
  top: "label"
  top: "extra"
  transform_param {
    scale: 0.0039215689
    mirror: true
    crop_size: 224
    mean_file: "../../data/1/256_train_mean.binaryproto"
  }
  image_data_param {
    source: "../../data/1/train_1.txt"
    batch_size: 32
    shuffle: true
    new_height: 256
    new_width: 256
    root_folder: "../../data/faces/"
    reference: false
  }
}
layer {
  name: "embedding_fc1"
  type: "InnerProduct"
  bottom: "extra"
  top: "embedding_fc1"
  param {
    lr_mult: 0.1
    decay_mult: 0.1
  }
  param {
    lr_mult: 0.2
    decay_mult: 0
  }
  inner_product_param {
    num_output: 256
    weight_filler {
      type: "gaussian"
      std: 0.001
    }
    bias_filler {
      type: "constant"
      value: 0
    }
  }
}
layer {
  name: "bn_embedding_fc1"
  type: "BatchNorm"
  bottom: "embedding_fc1"
  top: "embedding_fc1"
  batch_norm_param {
    moving_average_fraction: 0.999
  }
}
layer {
  name: "scale_embedding_fc1"
  type: "Scale"
  bottom: "embedding_fc1"
  top: "embedding_fc1"
  scale_param {
    bias_term: true
  }
}
layer {
  name: "relu_embedding_fc1"
  type: "ReLU"
  bottom: "embedding_fc1"
  top: "embedding_fc1"
}
layer {
  name: "embedding_fc2"
  type: "InnerProduct"
  bottom: "embedding_fc1"
  top: "embedding_fc2"
  param {
    lr_mult: 0.1
    decay_mult: 0.1
  }
  param {
    lr_mult: 0.2
    decay_mult: 0
  }
  inner_product_param {
    num_output: 1
    weight_filler {
      type: "gaussian"
      std: 0.001
    }
    bias_filler {
      type: "constant"
      value: 0
    }
  }
}
layer {
  name: "conv1"
  type: "Convolution"
  bottom: "data"
  top: "conv1"
  param {
    name: "conv1_w"
    lr_mult: 1
    decay_mult: 1
  }
  param {
    name: "conv1_b"
    lr_mult: 2
    decay_mult: 0
  }
  convolution_param {
    num_output: 96
    kernel_size: 11
    stride: 4
    weight_filler {
      type: "msra"
    }
    bias_filler {
      type: "constant"
      value: 0
    }
    engine: CAFFE
  }
}
layer {
  name: "bn_conv1"
  type: "BatchNorm"
  bottom: "conv1"
  top: "conv1"
  batch_norm_param {
    moving_average_fraction: 0.999
  }
}
layer {
  name: "scale_conv1"
  type: "Scale"
  bottom: "conv1"
  top: "conv1"
  scale_param {
    bias_term: true
  }
}
layer {
  name: "relu1"
  type: "ReLU"
  bottom: "conv1"
  top: "conv1"
}
layer {
  name: "pool1"
  type: "Pooling"
  bottom: "conv1"
  top: "pool1"
  pooling_param {
    pool: MAX
    kernel_size: 3
    stride: 2
  }
}
layer {
  name: "filter_ip2"
  type: "InnerProduct"
  bottom: "embedding_fc2"
  top: "filter_ip2"
  param {
    lr_mult: 1
    decay_mult: 1
  }
  param {
    lr_mult: 2
    decay_mult: 0
  }
  inner_product_param {
    num_output: 307200
    weight_filler {
      type: "gaussian"
      std: 0.001
    }
    bias_filler {
      type: "constant"
      value: 0
    }
  }
}
layer {
  name: "conv2"
  type: "Convolution"
  bottom: "pool1"
  bottom: "filter_ip2"
  top: "conv2"
  param {
    name: "conv2_w"
    lr_mult: 1
    decay_mult: 1
  }
  param {
    name: "conv2_b"
    lr_mult: 2
    decay_mult: 0
  }
  convolution_param {
    num_output: 256
    pad: 2
    kernel_size: 5
    group: 2
    weight_filler {
      type: "msra"
    }
    bias_filler {
      type: "constant"
      value: 0
    }
    engine: CAFFE
    weight_operation: COPY
  }
}
layer {
  name: "bn_conv2"
  type: "BatchNorm"
  bottom: "conv2"
  top: "conv2"
  batch_norm_param {
    moving_average_fraction: 0.999
  }
}
layer {
  name: "scale_conv2"
  type: "Scale"
  bottom: "conv2"
  top: "conv2"
  scale_param {
    bias_term: true
  }
}
layer {
  name: "relu2"
  type: "ReLU"
  bottom: "conv2"
  top: "conv2"
}
layer {
  name: "pool2"
  type: "Pooling"
  bottom: "conv2"
  top: "pool2"
  pooling_param {
    pool: MAX
    kernel_size: 3
    stride: 2
  }
}
layer {
  name: "filter_ip3"
  type: "InnerProduct"
  bottom: "embedding_fc2"
  top: "filter_ip3"
  param {
    lr_mult: 1
    decay_mult: 1
  }
  param {
    lr_mult: 2
    decay_mult: 0
  }
  inner_product_param {
    num_output: 884736
    weight_filler {
      type: "gaussian"
      std: 0.001
    }
    bias_filler {
      type: "constant"
      value: 0
    }
  }
}
layer {
  name: "conv3"
  type: "Convolution"
  bottom: "pool2"
  bottom: "filter_ip3"
  top: "conv3"
  param {
    name: "conv3_w"
    lr_mult: 1
    decay_mult: 1
  }
  param {
    name: "conv3_b"
    lr_mult: 2
    decay_mult: 0
  }
  convolution_param {
    num_output: 384
    pad: 1
    kernel_size: 3
    weight_filler {
      type: "msra"
    }
    bias_filler {
      type: "constant"
      value: 0
    }
    engine: CAFFE
    weight_operation: COPY
  }
}
layer {
  name: "bn_conv3"
  type: "BatchNorm"
  bottom: "conv3"
  top: "conv3"
  batch_norm_param {
    moving_average_fraction: 0.999
  }
}
layer {
  name: "scale_conv3"
  type: "Scale"
  bottom: "conv3"
  top: "conv3"
  scale_param {
    bias_term: true
  }
}
layer {
  name: "relu3"
  type: "ReLU"
  bottom: "conv3"
  top: "conv3"
}
layer {
  name: "filter_ip4"
  type: "InnerProduct"
  bottom: "embedding_fc2"
  top: "filter_ip4"
  param {
    lr_mult: 1
    decay_mult: 1
  }
  param {
    lr_mult: 2
    decay_mult: 0
  }
  inner_product_param {
    num_output: 663552
    weight_filler {
      type: "gaussian"
      std: 0.001
    }
    bias_filler {
      type: "constant"
      value: 0
    }
  }
}
layer {
  name: "conv4"
  type: "Convolution"
  bottom: "conv3"
  bottom: "filter_ip4"
  top: "conv4"
  param {
    name: "conv4_w"
    lr_mult: 1
    decay_mult: 1
  }
  param {
    name: "conv4_b"
    lr_mult: 2
    decay_mult: 0
  }
  convolution_param {
    num_output: 384
    pad: 1
    kernel_size: 3
    group: 2
    weight_filler {
      type: "msra"
    }
    bias_filler {
      type: "constant"
      value: 0
    }
    engine: CAFFE
    weight_operation: COPY
  }
}
layer {
  name: "bn_conv4"
  type: "BatchNorm"
  bottom: "conv4"
  top: "conv4"
  batch_norm_param {
    moving_average_fraction: 0.999
  }
}
layer {
  name: "scale_conv4"
  type: "Scale"
  bottom: "conv4"
  top: "conv4"
  scale_param {
    bias_term: true
  }
}
layer {
  name: "relu4"
  type: "ReLU"
  bottom: "conv4"
  top: "conv4"
}
layer {
  name: "filter_ip5"
  type: "InnerProduct"
  bottom: "embedding_fc2"
  top: "filter_ip5"
  param {
    lr_mult: 1
    decay_mult: 1
  }
  param {
    lr_mult: 2
    decay_mult: 0
  }
  inner_product_param {
    num_output: 442368
    weight_filler {
      type: "gaussian"
      std: 0.001
    }
    bias_filler {
      type: "constant"
      value: 0
    }
  }
}
layer {
  name: "conv5"
  type: "Convolution"
  bottom: "conv4"
  bottom: "filter_ip5"
  top: "conv5"
  param {
    name: "conv5_w"
    lr_mult: 1
    decay_mult: 1
  }
  param {
    name: "conv5_b"
    lr_mult: 2
    decay_mult: 0
  }
  convolution_param {
    num_output: 256
    pad: 1
    kernel_size: 3
    group: 2
    weight_filler {
      type: "msra"
    }
    bias_filler {
      type: "constant"
      value: 0
    }
    engine: CAFFE
    weight_operation: COPY
  }
}
layer {
  name: "bn_conv5"
  type: "BatchNorm"
  bottom: "conv5"
  top: "conv5"
  batch_norm_param {
    moving_average_fraction: 0.999
  }
}
layer {
  name: "scale_conv5"
  type: "Scale"
  bottom: "conv5"
  top: "conv5"
  scale_param {
    bias_term: true
  }
}
layer {
  name: "relu5"
  type: "ReLU"
  bottom: "conv5"
  top: "conv5"
}
layer {
  name: "pool5"
  type: "Pooling"
  bottom: "conv5"
  top: "pool5"
  pooling_param {
    pool: MAX
    kernel_size: 3
    stride: 2
  }
}
layer {
  name: "filter_ip6"
  type: "InnerProduct"
  bottom: "embedding_fc2"
  top: "filter_ip6"
  param {
    lr_mult: 1
    decay_mult: 1
  }
  param {
    lr_mult: 2
    decay_mult: 0
  }
  inner_product_param {
    num_output: 4718592
    weight_filler {
      type: "gaussian"
      std: 0.001
    }
    bias_filler {
      type: "constant"
      value: 0
    }
  }
}
layer {
  name: "feat0"
  type: "Convolution"
  bottom: "pool5"
  bottom: "filter_ip6"
  top: "feat0"
  param {
    lr_mult: 1
    decay_mult: 1
  }
  param {
    lr_mult: 2
    decay_mult: 0
  }
  convolution_param {
    num_output: 512
    kernel_size: 6
    weight_filler {
      type: "msra"
    }
    bias_filler {
      type: "constant"
      value: 0
    }
    engine: CAFFE
    weight_operation: COPY
  }
}
layer {
  name: "bn_feat0"
  type: "BatchNorm"
  bottom: "feat0"
  top: "feat0"
  batch_norm_param {
    moving_average_fraction: 0.999
  }
}
layer {
  name: "scale_feat0"
  type: "Scale"
  bottom: "feat0"
  top: "feat0"
  scale_param {
    bias_term: true
  }
}
layer {
  name: "relu_feat0"
  type: "ReLU"
  bottom: "feat0"
  top: "feat0"
}
layer {
  name: "filter_ip7"
  type: "InnerProduct"
  bottom: "embedding_fc2"
  top: "filter_ip7"
  param {
    lr_mult: 1
    decay_mult: 1
  }
  param {
    lr_mult: 2
    decay_mult: 0
  }
  inner_product_param {
    num_output: 512
    weight_filler {
      type: "gaussian"
      std: 0.001
    }
    bias_filler {
      type: "constant"
      value: 0
    }
  }
}
layer {
  name: "feat1"
  type: "Convolution"
  bottom: "feat0"
  bottom: "filter_ip7"
  top: "feat1"
  param {
    lr_mult: 1
    decay_mult: 1
  }
  param {
    lr_mult: 2
    decay_mult: 0
  }
  convolution_param {
    num_output: 1
    kernel_size: 1
    weight_filler {
      type: "msra"
    }
    bias_filler {
      type: "constant"
      value: 0
    }
    engine: CAFFE
    weight_operation: COPY
  }
}
layer {
  name: "eucli_loss"
  type: "EuclideanLoss"
  bottom: "feat1"
  bottom: "label"
  top: "eucli_loss"
}
I0210 16:36:17.509327 16731 layer_factory.hpp:77] Creating layer data
I0210 16:36:17.509349 16731 net.cpp:84] Creating Layer data
I0210 16:36:17.509356 16731 net.cpp:380] data -> data
I0210 16:36:17.509369 16731 net.cpp:380] data -> label
I0210 16:36:17.509377 16731 net.cpp:380] data -> extra
I0210 16:36:17.509384 16731 data_transformer.cpp:28] Loading mean file from: ../../data/1/256_train_mean.binaryproto
I0210 16:36:17.511512 16731 image_data_layer.cpp:38] Opening file ../../data/1/train_1.txt
I0210 16:36:17.512238 16731 image_data_layer.cpp:53] Shuffling data
I0210 16:36:17.512333 16731 image_data_layer.cpp:63] A total of 4400 images.
I0210 16:36:17.514838 16731 image_data_layer.cpp:90] output data size: 32,3,224,224
I0210 16:36:17.541429 16731 net.cpp:122] Setting up data
I0210 16:36:17.541455 16731 net.cpp:129] Top shape: 32 3 224 224 (4816896)
I0210 16:36:17.541460 16731 net.cpp:129] Top shape: 32 (32)
I0210 16:36:17.541462 16731 net.cpp:129] Top shape: 32 2 1 1 (64)
I0210 16:36:17.541465 16731 net.cpp:137] Memory required for data: 19267968
I0210 16:36:17.541471 16731 layer_factory.hpp:77] Creating layer embedding_fc1
I0210 16:36:17.541483 16731 net.cpp:84] Creating Layer embedding_fc1
I0210 16:36:17.541489 16731 net.cpp:406] embedding_fc1 <- extra
I0210 16:36:17.541499 16731 net.cpp:380] embedding_fc1 -> embedding_fc1
I0210 16:36:17.542173 16731 net.cpp:122] Setting up embedding_fc1
I0210 16:36:17.542183 16731 net.cpp:129] Top shape: 32 256 (8192)
I0210 16:36:17.542186 16731 net.cpp:137] Memory required for data: 19300736
I0210 16:36:17.542201 16731 layer_factory.hpp:77] Creating layer bn_embedding_fc1
I0210 16:36:17.542207 16731 net.cpp:84] Creating Layer bn_embedding_fc1
I0210 16:36:17.542210 16731 net.cpp:406] bn_embedding_fc1 <- embedding_fc1
I0210 16:36:17.542215 16731 net.cpp:367] bn_embedding_fc1 -> embedding_fc1 (in-place)
I0210 16:36:17.542325 16731 net.cpp:122] Setting up bn_embedding_fc1
I0210 16:36:17.542348 16731 net.cpp:129] Top shape: 32 256 (8192)
I0210 16:36:17.542351 16731 net.cpp:137] Memory required for data: 19333504
I0210 16:36:17.542358 16731 layer_factory.hpp:77] Creating layer scale_embedding_fc1
I0210 16:36:17.542364 16731 net.cpp:84] Creating Layer scale_embedding_fc1
I0210 16:36:17.542366 16731 net.cpp:406] scale_embedding_fc1 <- embedding_fc1
I0210 16:36:17.542371 16731 net.cpp:367] scale_embedding_fc1 -> embedding_fc1 (in-place)
I0210 16:36:17.542397 16731 layer_factory.hpp:77] Creating layer scale_embedding_fc1
I0210 16:36:17.542457 16731 net.cpp:122] Setting up scale_embedding_fc1
I0210 16:36:17.542462 16731 net.cpp:129] Top shape: 32 256 (8192)
I0210 16:36:17.542465 16731 net.cpp:137] Memory required for data: 19366272
I0210 16:36:17.542469 16731 layer_factory.hpp:77] Creating layer relu_embedding_fc1
I0210 16:36:17.542474 16731 net.cpp:84] Creating Layer relu_embedding_fc1
I0210 16:36:17.542477 16731 net.cpp:406] relu_embedding_fc1 <- embedding_fc1
I0210 16:36:17.542481 16731 net.cpp:367] relu_embedding_fc1 -> embedding_fc1 (in-place)
I0210 16:36:17.957996 16731 net.cpp:122] Setting up relu_embedding_fc1
I0210 16:36:17.958057 16731 net.cpp:129] Top shape: 32 256 (8192)
I0210 16:36:17.958061 16731 net.cpp:137] Memory required for data: 19399040
I0210 16:36:17.958067 16731 layer_factory.hpp:77] Creating layer embedding_fc2
I0210 16:36:17.958093 16731 net.cpp:84] Creating Layer embedding_fc2
I0210 16:36:17.958097 16731 net.cpp:406] embedding_fc2 <- embedding_fc1
I0210 16:36:17.958106 16731 net.cpp:380] embedding_fc2 -> embedding_fc2
I0210 16:36:17.958200 16731 net.cpp:122] Setting up embedding_fc2
I0210 16:36:17.958206 16731 net.cpp:129] Top shape: 32 1 (32)
I0210 16:36:17.958209 16731 net.cpp:137] Memory required for data: 19399168
I0210 16:36:17.958218 16731 layer_factory.hpp:77] Creating layer embedding_fc2_embedding_fc2_0_split
I0210 16:36:17.958223 16731 net.cpp:84] Creating Layer embedding_fc2_embedding_fc2_0_split
I0210 16:36:17.958226 16731 net.cpp:406] embedding_fc2_embedding_fc2_0_split <- embedding_fc2
I0210 16:36:17.958230 16731 net.cpp:380] embedding_fc2_embedding_fc2_0_split -> embedding_fc2_embedding_fc2_0_split_0
I0210 16:36:17.958235 16731 net.cpp:380] embedding_fc2_embedding_fc2_0_split -> embedding_fc2_embedding_fc2_0_split_1
I0210 16:36:17.958240 16731 net.cpp:380] embedding_fc2_embedding_fc2_0_split -> embedding_fc2_embedding_fc2_0_split_2
I0210 16:36:17.958245 16731 net.cpp:380] embedding_fc2_embedding_fc2_0_split -> embedding_fc2_embedding_fc2_0_split_3
I0210 16:36:17.958250 16731 net.cpp:380] embedding_fc2_embedding_fc2_0_split -> embedding_fc2_embedding_fc2_0_split_4
I0210 16:36:17.958254 16731 net.cpp:380] embedding_fc2_embedding_fc2_0_split -> embedding_fc2_embedding_fc2_0_split_5
I0210 16:36:17.958307 16731 net.cpp:122] Setting up embedding_fc2_embedding_fc2_0_split
I0210 16:36:17.958312 16731 net.cpp:129] Top shape: 32 1 (32)
I0210 16:36:17.958314 16731 net.cpp:129] Top shape: 32 1 (32)
I0210 16:36:17.958317 16731 net.cpp:129] Top shape: 32 1 (32)
I0210 16:36:17.958320 16731 net.cpp:129] Top shape: 32 1 (32)
I0210 16:36:17.958323 16731 net.cpp:129] Top shape: 32 1 (32)
I0210 16:36:17.958325 16731 net.cpp:129] Top shape: 32 1 (32)
I0210 16:36:17.958328 16731 net.cpp:137] Memory required for data: 19399936
I0210 16:36:17.958329 16731 layer_factory.hpp:77] Creating layer conv1
I0210 16:36:17.958341 16731 net.cpp:84] Creating Layer conv1
I0210 16:36:17.958344 16731 net.cpp:406] conv1 <- data
I0210 16:36:17.958369 16731 net.cpp:380] conv1 -> conv1
I0210 16:36:17.960299 16731 net.cpp:122] Setting up conv1
I0210 16:36:17.960325 16731 net.cpp:129] Top shape: 32 96 54 54 (8957952)
I0210 16:36:17.960328 16731 net.cpp:137] Memory required for data: 55231744
I0210 16:36:17.960337 16731 layer_factory.hpp:77] Creating layer bn_conv1
I0210 16:36:17.960350 16731 net.cpp:84] Creating Layer bn_conv1
I0210 16:36:17.960355 16731 net.cpp:406] bn_conv1 <- conv1
I0210 16:36:17.960362 16731 net.cpp:367] bn_conv1 -> conv1 (in-place)
I0210 16:36:17.960646 16731 net.cpp:122] Setting up bn_conv1
I0210 16:36:17.960654 16731 net.cpp:129] Top shape: 32 96 54 54 (8957952)
I0210 16:36:17.960656 16731 net.cpp:137] Memory required for data: 91063552
I0210 16:36:17.960662 16731 layer_factory.hpp:77] Creating layer scale_conv1
I0210 16:36:17.960669 16731 net.cpp:84] Creating Layer scale_conv1
I0210 16:36:17.960671 16731 net.cpp:406] scale_conv1 <- conv1
I0210 16:36:17.960675 16731 net.cpp:367] scale_conv1 -> conv1 (in-place)
I0210 16:36:17.960703 16731 layer_factory.hpp:77] Creating layer scale_conv1
I0210 16:36:17.960783 16731 net.cpp:122] Setting up scale_conv1
I0210 16:36:17.960788 16731 net.cpp:129] Top shape: 32 96 54 54 (8957952)
I0210 16:36:17.960791 16731 net.cpp:137] Memory required for data: 126895360
I0210 16:36:17.960795 16731 layer_factory.hpp:77] Creating layer relu1
I0210 16:36:17.960799 16731 net.cpp:84] Creating Layer relu1
I0210 16:36:17.960803 16731 net.cpp:406] relu1 <- conv1
I0210 16:36:17.960805 16731 net.cpp:367] relu1 -> conv1 (in-place)
I0210 16:36:17.961205 16731 net.cpp:122] Setting up relu1
I0210 16:36:17.961212 16731 net.cpp:129] Top shape: 32 96 54 54 (8957952)
I0210 16:36:17.961216 16731 net.cpp:137] Memory required for data: 162727168
I0210 16:36:17.961233 16731 layer_factory.hpp:77] Creating layer pool1
I0210 16:36:17.961239 16731 net.cpp:84] Creating Layer pool1
I0210 16:36:17.961242 16731 net.cpp:406] pool1 <- conv1
I0210 16:36:17.961247 16731 net.cpp:380] pool1 -> pool1
I0210 16:36:17.961287 16731 net.cpp:122] Setting up pool1
I0210 16:36:17.961292 16731 net.cpp:129] Top shape: 32 96 27 27 (2239488)
I0210 16:36:17.961295 16731 net.cpp:137] Memory required for data: 171685120
I0210 16:36:17.961298 16731 layer_factory.hpp:77] Creating layer filter_ip2
I0210 16:36:17.961302 16731 net.cpp:84] Creating Layer filter_ip2
I0210 16:36:17.961305 16731 net.cpp:406] filter_ip2 <- embedding_fc2_embedding_fc2_0_split_0
I0210 16:36:17.961309 16731 net.cpp:380] filter_ip2 -> filter_ip2
I0210 16:36:17.964156 16731 net.cpp:122] Setting up filter_ip2
I0210 16:36:17.964190 16731 net.cpp:129] Top shape: 32 307200 (9830400)
I0210 16:36:17.964195 16731 net.cpp:137] Memory required for data: 211006720
I0210 16:36:17.964205 16731 layer_factory.hpp:77] Creating layer conv2
I0210 16:36:17.964229 16731 net.cpp:84] Creating Layer conv2
I0210 16:36:17.964233 16731 net.cpp:406] conv2 <- pool1
I0210 16:36:17.964237 16731 net.cpp:406] conv2 <- filter_ip2
I0210 16:36:17.964241 16731 net.cpp:380] conv2 -> conv2
I0210 16:36:17.966773 16731 net.cpp:122] Setting up conv2
I0210 16:36:17.966784 16731 net.cpp:129] Top shape: 32 256 27 27 (5971968)
I0210 16:36:17.966786 16731 net.cpp:137] Memory required for data: 234894592
I0210 16:36:17.966790 16731 layer_factory.hpp:77] Creating layer bn_conv2
I0210 16:36:17.966796 16731 net.cpp:84] Creating Layer bn_conv2
I0210 16:36:17.966799 16731 net.cpp:406] bn_conv2 <- conv2
I0210 16:36:17.966802 16731 net.cpp:367] bn_conv2 -> conv2 (in-place)
I0210 16:36:17.966924 16731 net.cpp:122] Setting up bn_conv2
I0210 16:36:17.966930 16731 net.cpp:129] Top shape: 32 256 27 27 (5971968)
I0210 16:36:17.966933 16731 net.cpp:137] Memory required for data: 258782464
I0210 16:36:17.966938 16731 layer_factory.hpp:77] Creating layer scale_conv2
I0210 16:36:17.966943 16731 net.cpp:84] Creating Layer scale_conv2
I0210 16:36:17.966945 16731 net.cpp:406] scale_conv2 <- conv2
I0210 16:36:17.966948 16731 net.cpp:367] scale_conv2 -> conv2 (in-place)
I0210 16:36:17.966974 16731 layer_factory.hpp:77] Creating layer scale_conv2
I0210 16:36:17.967044 16731 net.cpp:122] Setting up scale_conv2
I0210 16:36:17.967049 16731 net.cpp:129] Top shape: 32 256 27 27 (5971968)
I0210 16:36:17.967053 16731 net.cpp:137] Memory required for data: 282670336
I0210 16:36:17.967056 16731 layer_factory.hpp:77] Creating layer relu2
I0210 16:36:17.967062 16731 net.cpp:84] Creating Layer relu2
I0210 16:36:17.967065 16731 net.cpp:406] relu2 <- conv2
I0210 16:36:17.967068 16731 net.cpp:367] relu2 -> conv2 (in-place)
I0210 16:36:17.967486 16731 net.cpp:122] Setting up relu2
I0210 16:36:17.967512 16731 net.cpp:129] Top shape: 32 256 27 27 (5971968)
I0210 16:36:17.967515 16731 net.cpp:137] Memory required for data: 306558208
I0210 16:36:17.967519 16731 layer_factory.hpp:77] Creating layer pool2
I0210 16:36:17.967523 16731 net.cpp:84] Creating Layer pool2
I0210 16:36:17.967525 16731 net.cpp:406] pool2 <- conv2
I0210 16:36:17.967530 16731 net.cpp:380] pool2 -> pool2
I0210 16:36:17.967558 16731 net.cpp:122] Setting up pool2
I0210 16:36:17.967563 16731 net.cpp:129] Top shape: 32 256 13 13 (1384448)
I0210 16:36:17.967566 16731 net.cpp:137] Memory required for data: 312096000
I0210 16:36:17.967568 16731 layer_factory.hpp:77] Creating layer filter_ip3
I0210 16:36:17.967573 16731 net.cpp:84] Creating Layer filter_ip3
I0210 16:36:17.967576 16731 net.cpp:406] filter_ip3 <- embedding_fc2_embedding_fc2_0_split_1
I0210 16:36:17.967579 16731 net.cpp:380] filter_ip3 -> filter_ip3
I0210 16:36:17.975119 16731 net.cpp:122] Setting up filter_ip3
I0210 16:36:17.975142 16731 net.cpp:129] Top shape: 32 884736 (28311552)
I0210 16:36:17.975145 16731 net.cpp:137] Memory required for data: 425342208
I0210 16:36:17.975152 16731 layer_factory.hpp:77] Creating layer conv3
I0210 16:36:17.975162 16731 net.cpp:84] Creating Layer conv3
I0210 16:36:17.975167 16731 net.cpp:406] conv3 <- pool2
I0210 16:36:17.975172 16731 net.cpp:406] conv3 <- filter_ip3
I0210 16:36:17.975178 16731 net.cpp:380] conv3 -> conv3
I0210 16:36:17.981745 16731 net.cpp:122] Setting up conv3
I0210 16:36:17.981765 16731 net.cpp:129] Top shape: 32 384 13 13 (2076672)
I0210 16:36:17.981766 16731 net.cpp:137] Memory required for data: 433648896
I0210 16:36:17.981772 16731 layer_factory.hpp:77] Creating layer bn_conv3
I0210 16:36:17.981779 16731 net.cpp:84] Creating Layer bn_conv3
I0210 16:36:17.981782 16731 net.cpp:406] bn_conv3 <- conv3
I0210 16:36:17.981786 16731 net.cpp:367] bn_conv3 -> conv3 (in-place)
I0210 16:36:17.981915 16731 net.cpp:122] Setting up bn_conv3
I0210 16:36:17.981921 16731 net.cpp:129] Top shape: 32 384 13 13 (2076672)
I0210 16:36:17.981925 16731 net.cpp:137] Memory required for data: 441955584
I0210 16:36:17.981930 16731 layer_factory.hpp:77] Creating layer scale_conv3
I0210 16:36:17.981935 16731 net.cpp:84] Creating Layer scale_conv3
I0210 16:36:17.981937 16731 net.cpp:406] scale_conv3 <- conv3
I0210 16:36:17.981940 16731 net.cpp:367] scale_conv3 -> conv3 (in-place)
I0210 16:36:17.981966 16731 layer_factory.hpp:77] Creating layer scale_conv3
I0210 16:36:17.982044 16731 net.cpp:122] Setting up scale_conv3
I0210 16:36:17.982050 16731 net.cpp:129] Top shape: 32 384 13 13 (2076672)
I0210 16:36:17.982053 16731 net.cpp:137] Memory required for data: 450262272
I0210 16:36:17.982060 16731 layer_factory.hpp:77] Creating layer relu3
I0210 16:36:17.982065 16731 net.cpp:84] Creating Layer relu3
I0210 16:36:17.982069 16731 net.cpp:406] relu3 <- conv3
I0210 16:36:17.982071 16731 net.cpp:367] relu3 -> conv3 (in-place)
I0210 16:36:17.982362 16731 net.cpp:122] Setting up relu3
I0210 16:36:17.982368 16731 net.cpp:129] Top shape: 32 384 13 13 (2076672)
I0210 16:36:17.982372 16731 net.cpp:137] Memory required for data: 458568960
I0210 16:36:17.982374 16731 layer_factory.hpp:77] Creating layer filter_ip4
I0210 16:36:17.982380 16731 net.cpp:84] Creating Layer filter_ip4
I0210 16:36:17.982383 16731 net.cpp:406] filter_ip4 <- embedding_fc2_embedding_fc2_0_split_2
I0210 16:36:17.982389 16731 net.cpp:380] filter_ip4 -> filter_ip4
I0210 16:36:17.988339 16731 net.cpp:122] Setting up filter_ip4
I0210 16:36:17.988373 16731 net.cpp:129] Top shape: 32 663552 (21233664)
I0210 16:36:17.988375 16731 net.cpp:137] Memory required for data: 543503616
I0210 16:36:17.988387 16731 layer_factory.hpp:77] Creating layer conv4
I0210 16:36:17.988404 16731 net.cpp:84] Creating Layer conv4
I0210 16:36:17.988423 16731 net.cpp:406] conv4 <- conv3
I0210 16:36:17.988428 16731 net.cpp:406] conv4 <- filter_ip4
I0210 16:36:17.988447 16731 net.cpp:380] conv4 -> conv4
I0210 16:36:17.993870 16731 net.cpp:122] Setting up conv4
I0210 16:36:17.993914 16731 net.cpp:129] Top shape: 32 384 13 13 (2076672)
I0210 16:36:17.993942 16731 net.cpp:137] Memory required for data: 551810304
I0210 16:36:17.993952 16731 layer_factory.hpp:77] Creating layer bn_conv4
I0210 16:36:17.993960 16731 net.cpp:84] Creating Layer bn_conv4
I0210 16:36:17.993964 16731 net.cpp:406] bn_conv4 <- conv4
I0210 16:36:17.993969 16731 net.cpp:367] bn_conv4 -> conv4 (in-place)
I0210 16:36:17.994148 16731 net.cpp:122] Setting up bn_conv4
I0210 16:36:17.994155 16731 net.cpp:129] Top shape: 32 384 13 13 (2076672)
I0210 16:36:17.994171 16731 net.cpp:137] Memory required for data: 560116992
I0210 16:36:17.994179 16731 layer_factory.hpp:77] Creating layer scale_conv4
I0210 16:36:17.994184 16731 net.cpp:84] Creating Layer scale_conv4
I0210 16:36:17.994187 16731 net.cpp:406] scale_conv4 <- conv4
I0210 16:36:17.994192 16731 net.cpp:367] scale_conv4 -> conv4 (in-place)
I0210 16:36:17.994223 16731 layer_factory.hpp:77] Creating layer scale_conv4
I0210 16:36:17.994307 16731 net.cpp:122] Setting up scale_conv4
I0210 16:36:17.994318 16731 net.cpp:129] Top shape: 32 384 13 13 (2076672)
I0210 16:36:17.994323 16731 net.cpp:137] Memory required for data: 568423680
I0210 16:36:17.994328 16731 layer_factory.hpp:77] Creating layer relu4
I0210 16:36:17.994333 16731 net.cpp:84] Creating Layer relu4
I0210 16:36:17.994336 16731 net.cpp:406] relu4 <- conv4
I0210 16:36:17.994339 16731 net.cpp:367] relu4 -> conv4 (in-place)
I0210 16:36:17.994771 16731 net.cpp:122] Setting up relu4
I0210 16:36:17.994799 16731 net.cpp:129] Top shape: 32 384 13 13 (2076672)
I0210 16:36:17.994802 16731 net.cpp:137] Memory required for data: 576730368
I0210 16:36:17.994804 16731 layer_factory.hpp:77] Creating layer filter_ip5
I0210 16:36:17.994810 16731 net.cpp:84] Creating Layer filter_ip5
I0210 16:36:17.994814 16731 net.cpp:406] filter_ip5 <- embedding_fc2_embedding_fc2_0_split_3
I0210 16:36:17.994820 16731 net.cpp:380] filter_ip5 -> filter_ip5
I0210 16:36:17.999318 16731 net.cpp:122] Setting up filter_ip5
I0210 16:36:17.999339 16731 net.cpp:129] Top shape: 32 442368 (14155776)
I0210 16:36:17.999342 16731 net.cpp:137] Memory required for data: 633353472
I0210 16:36:17.999349 16731 layer_factory.hpp:77] Creating layer conv5
I0210 16:36:17.999361 16731 net.cpp:84] Creating Layer conv5
I0210 16:36:17.999387 16731 net.cpp:406] conv5 <- conv4
I0210 16:36:17.999392 16731 net.cpp:406] conv5 <- filter_ip5
I0210 16:36:17.999397 16731 net.cpp:380] conv5 -> conv5
I0210 16:36:18.002918 16731 net.cpp:122] Setting up conv5
I0210 16:36:18.002935 16731 net.cpp:129] Top shape: 32 256 13 13 (1384448)
I0210 16:36:18.002939 16731 net.cpp:137] Memory required for data: 638891264
I0210 16:36:18.002944 16731 layer_factory.hpp:77] Creating layer bn_conv5
I0210 16:36:18.002950 16731 net.cpp:84] Creating Layer bn_conv5
I0210 16:36:18.002954 16731 net.cpp:406] bn_conv5 <- conv5
I0210 16:36:18.002959 16731 net.cpp:367] bn_conv5 -> conv5 (in-place)
I0210 16:36:18.003140 16731 net.cpp:122] Setting up bn_conv5
I0210 16:36:18.003145 16731 net.cpp:129] Top shape: 32 256 13 13 (1384448)
I0210 16:36:18.003149 16731 net.cpp:137] Memory required for data: 644429056
I0210 16:36:18.003154 16731 layer_factory.hpp:77] Creating layer scale_conv5
I0210 16:36:18.003157 16731 net.cpp:84] Creating Layer scale_conv5
I0210 16:36:18.003160 16731 net.cpp:406] scale_conv5 <- conv5
I0210 16:36:18.003163 16731 net.cpp:367] scale_conv5 -> conv5 (in-place)
I0210 16:36:18.003193 16731 layer_factory.hpp:77] Creating layer scale_conv5
I0210 16:36:18.003273 16731 net.cpp:122] Setting up scale_conv5
I0210 16:36:18.003279 16731 net.cpp:129] Top shape: 32 256 13 13 (1384448)
I0210 16:36:18.003283 16731 net.cpp:137] Memory required for data: 649966848
I0210 16:36:18.003286 16731 layer_factory.hpp:77] Creating layer relu5
I0210 16:36:18.003294 16731 net.cpp:84] Creating Layer relu5
I0210 16:36:18.003298 16731 net.cpp:406] relu5 <- conv5
I0210 16:36:18.003300 16731 net.cpp:367] relu5 -> conv5 (in-place)
I0210 16:36:18.003790 16731 net.cpp:122] Setting up relu5
I0210 16:36:18.003798 16731 net.cpp:129] Top shape: 32 256 13 13 (1384448)
I0210 16:36:18.003801 16731 net.cpp:137] Memory required for data: 655504640
I0210 16:36:18.003823 16731 layer_factory.hpp:77] Creating layer pool5
I0210 16:36:18.003830 16731 net.cpp:84] Creating Layer pool5
I0210 16:36:18.003834 16731 net.cpp:406] pool5 <- conv5
I0210 16:36:18.003839 16731 net.cpp:380] pool5 -> pool5
I0210 16:36:18.003872 16731 net.cpp:122] Setting up pool5
I0210 16:36:18.003880 16731 net.cpp:129] Top shape: 32 256 6 6 (294912)
I0210 16:36:18.003896 16731 net.cpp:137] Memory required for data: 656684288
I0210 16:36:18.003899 16731 layer_factory.hpp:77] Creating layer filter_ip6
I0210 16:36:18.003906 16731 net.cpp:84] Creating Layer filter_ip6
I0210 16:36:18.003908 16731 net.cpp:406] filter_ip6 <- embedding_fc2_embedding_fc2_0_split_4
I0210 16:36:18.003913 16731 net.cpp:380] filter_ip6 -> filter_ip6
I0210 16:36:18.042565 16731 net.cpp:122] Setting up filter_ip6
I0210 16:36:18.042593 16731 net.cpp:129] Top shape: 32 4718592 (150994944)
I0210 16:36:18.042598 16731 net.cpp:137] Memory required for data: 1260664064
I0210 16:36:18.042606 16731 layer_factory.hpp:77] Creating layer feat0
I0210 16:36:18.042618 16731 net.cpp:84] Creating Layer feat0
I0210 16:36:18.042623 16731 net.cpp:406] feat0 <- pool5
I0210 16:36:18.042629 16731 net.cpp:406] feat0 <- filter_ip6
I0210 16:36:18.042634 16731 net.cpp:380] feat0 -> feat0
I0210 16:36:18.076105 16731 net.cpp:122] Setting up feat0
I0210 16:36:18.076124 16731 net.cpp:129] Top shape: 32 512 1 1 (16384)
I0210 16:36:18.076128 16731 net.cpp:137] Memory required for data: 1260729600
I0210 16:36:18.076135 16731 layer_factory.hpp:77] Creating layer bn_feat0
I0210 16:36:18.076144 16731 net.cpp:84] Creating Layer bn_feat0
I0210 16:36:18.076148 16731 net.cpp:406] bn_feat0 <- feat0
I0210 16:36:18.076155 16731 net.cpp:367] bn_feat0 -> feat0 (in-place)
I0210 16:36:18.076297 16731 net.cpp:122] Setting up bn_feat0
I0210 16:36:18.076303 16731 net.cpp:129] Top shape: 32 512 1 1 (16384)
I0210 16:36:18.076305 16731 net.cpp:137] Memory required for data: 1260795136
I0210 16:36:18.076310 16731 layer_factory.hpp:77] Creating layer scale_feat0
I0210 16:36:18.076315 16731 net.cpp:84] Creating Layer scale_feat0
I0210 16:36:18.076318 16731 net.cpp:406] scale_feat0 <- feat0
I0210 16:36:18.076324 16731 net.cpp:367] scale_feat0 -> feat0 (in-place)
I0210 16:36:18.076354 16731 layer_factory.hpp:77] Creating layer scale_feat0
I0210 16:36:18.076436 16731 net.cpp:122] Setting up scale_feat0
I0210 16:36:18.076442 16731 net.cpp:129] Top shape: 32 512 1 1 (16384)
I0210 16:36:18.076444 16731 net.cpp:137] Memory required for data: 1260860672
I0210 16:36:18.076449 16731 layer_factory.hpp:77] Creating layer relu_feat0
I0210 16:36:18.076454 16731 net.cpp:84] Creating Layer relu_feat0
I0210 16:36:18.076457 16731 net.cpp:406] relu_feat0 <- feat0
I0210 16:36:18.076462 16731 net.cpp:367] relu_feat0 -> feat0 (in-place)
I0210 16:36:18.076813 16731 net.cpp:122] Setting up relu_feat0
I0210 16:36:18.076822 16731 net.cpp:129] Top shape: 32 512 1 1 (16384)
I0210 16:36:18.076824 16731 net.cpp:137] Memory required for data: 1260926208
I0210 16:36:18.076828 16731 layer_factory.hpp:77] Creating layer filter_ip7
I0210 16:36:18.076834 16731 net.cpp:84] Creating Layer filter_ip7
I0210 16:36:18.076838 16731 net.cpp:406] filter_ip7 <- embedding_fc2_embedding_fc2_0_split_5
I0210 16:36:18.076843 16731 net.cpp:380] filter_ip7 -> filter_ip7
I0210 16:36:18.076927 16731 net.cpp:122] Setting up filter_ip7
I0210 16:36:18.076933 16731 net.cpp:129] Top shape: 32 512 (16384)
I0210 16:36:18.076936 16731 net.cpp:137] Memory required for data: 1260991744
I0210 16:36:18.076941 16731 layer_factory.hpp:77] Creating layer feat1
I0210 16:36:18.076948 16731 net.cpp:84] Creating Layer feat1
I0210 16:36:18.076952 16731 net.cpp:406] feat1 <- feat0
I0210 16:36:18.076956 16731 net.cpp:406] feat1 <- filter_ip7
I0210 16:36:18.076961 16731 net.cpp:380] feat1 -> feat1
I0210 16:36:18.077142 16731 net.cpp:122] Setting up feat1
I0210 16:36:18.077148 16731 net.cpp:129] Top shape: 32 1 1 1 (32)
I0210 16:36:18.077152 16731 net.cpp:137] Memory required for data: 1260991872
I0210 16:36:18.077163 16731 layer_factory.hpp:77] Creating layer eucli_loss
I0210 16:36:18.077184 16731 net.cpp:84] Creating Layer eucli_loss
I0210 16:36:18.077189 16731 net.cpp:406] eucli_loss <- feat1
I0210 16:36:18.077193 16731 net.cpp:406] eucli_loss <- label
I0210 16:36:18.077199 16731 net.cpp:380] eucli_loss -> eucli_loss
…
I0210 16:48:14.222683 16731 upgrade_proto.cpp:70] Successfully upgraded file specified using deprecated input fields.
W0210 16:48:14.222687 16731 upgrade_proto.cpp:72] Note that future Caffe releases will only support input layers and not input fields.
I0210 16:48:14.222873 16731 net.cpp:51] Initializing net from parameters: 
name: "AlexNet-ignet"
state {
  phase: TEST
  level: 0
}
layer {
  name: "input"
  type: "Input"
  top: "data"
  top: "extra"
  input_param {
    shape {
      dim: 1
      dim: 3
      dim: 224
      dim: 224
    }
    shape {
      dim: 1
      dim: 2
      dim: 1
      dim: 1
    }
  }
}
layer {
  name: "embedding_fc1"
  type: "InnerProduct"
  bottom: "extra"
  top: "embedding_fc1"
  param {
    lr_mult: 1
    decay_mult: 1
  }
  param {
    lr_mult: 2
    decay_mult: 0
  }
  inner_product_param {
    num_output: 256
    weight_filler {
      type: "gaussian"
      std: 0.001
    }
    bias_filler {
      type: "constant"
      value: 0
    }
  }
}
layer {
  name: "bn_embedding_fc1"
  type: "BatchNorm"
  bottom: "embedding_fc1"
  top: "embedding_fc1"
  batch_norm_param {
    moving_average_fraction: 0.999
  }
}
layer {
  name: "scale_embedding_fc1"
  type: "Scale"
  bottom: "embedding_fc1"
  top: "embedding_fc1"
  scale_param {
    bias_term: true
  }
}
layer {
  name: "relu_embedding_fc1"
  type: "ReLU"
  bottom: "embedding_fc1"
  top: "embedding_fc1"
}
layer {
  name: "embedding_fc2"
  type: "InnerProduct"
  bottom: "embedding_fc1"
  top: "embedding_fc2"
  param {
    lr_mult: 1
    decay_mult: 1
  }
  param {
    lr_mult: 2
    decay_mult: 0
  }
  inner_product_param {
    num_output: 1
    weight_filler {
      type: "gaussian"
      std: 0.001
    }
    bias_filler {
      type: "constant"
      value: 0
    }
  }
}
layer {
  name: "conv1"
  type: "Convolution"
  bottom: "data"
  top: "conv1"
  param {
    name: "conv1_w"
    lr_mult: 1
    decay_mult: 1
  }
  param {
    name: "conv1_b"
    lr_mult: 2
    decay_mult: 0
  }
  convolution_param {
    num_output: 96
    kernel_size: 11
    stride: 4
    weight_filler {
      type: "msra"
    }
    bias_filler {
      type: "constant"
      value: 0
    }
    engine: CAFFE
  }
}
layer {
  name: "bn_conv1"
  type: "BatchNorm"
  bottom: "conv1"
  top: "conv1"
  batch_norm_param {
    moving_average_fraction: 0.999
  }
}
layer {
  name: "scale_conv1"
  type: "Scale"
  bottom: "conv1"
  top: "conv1"
  scale_param {
    bias_term: true
  }
}
layer {
  name: "relu1"
  type: "ReLU"
  bottom: "conv1"
  top: "conv1"
}
layer {
  name: "pool1"
  type: "Pooling"
  bottom: "conv1"
  top: "pool1"
  pooling_param {
    pool: MAX
    kernel_size: 3
    stride: 2
  }
}
layer {
  name: "filter_ip2"
  type: "InnerProduct"
  bottom: "embedding_fc2"
  top: "filter_ip2"
  param {
    lr_mult: 1
    decay_mult: 1
  }
  param {
    lr_mult: 2
    decay_mult: 0
  }
  inner_product_param {
    num_output: 307200
    weight_filler {
      type: "gaussian"
      std: 0.001
    }
    bias_filler {
      type: "constant"
      value: 0
    }
  }
}
layer {
  name: "conv2"
  type: "Convolution"
  bottom: "pool1"
  bottom: "filter_ip2"
  top: "conv2"
  param {
    name: "conv2_w"
    lr_mult: 1
    decay_mult: 1
  }
  param {
    name: "conv2_b"
    lr_mult: 2
    decay_mult: 0
  }
  convolution_param {
    num_output: 256
    pad: 2
    kernel_size: 5
    group: 2
    weight_filler {
      type: "msra"
    }
    bias_filler {
      type: "constant"
      value: 0
    }
    engine: CAFFE
    weight_operation: COPY
  }
}
layer {
  name: "bn_conv2"
  type: "BatchNorm"
  bottom: "conv2"
  top: "conv2"
  batch_norm_param {
    moving_average_fraction: 0.999
  }
}
layer {
  name: "scale_conv2"
  type: "Scale"
  bottom: "conv2"
  top: "conv2"
  scale_param {
    bias_term: true
  }
}
layer {
  name: "relu2"
  type: "ReLU"
  bottom: "conv2"
  top: "conv2"
}
layer {
  name: "pool2"
  type: "Pooling"
  bottom: "conv2"
  top: "pool2"
  pooling_param {
    pool: MAX
    kernel_size: 3
    stride: 2
  }
}
layer {
  name: "filter_ip3"
  type: "InnerProduct"
  bottom: "embedding_fc2"
  top: "filter_ip3"
  param {
    lr_mult: 1
    decay_mult: 1
  }
  param {
    lr_mult: 2
    decay_mult: 0
  }
  inner_product_param {
    num_output: 884736
    weight_filler {
      type: "gaussian"
      std: 0.001
    }
    bias_filler {
      type: "constant"
      value: 0
    }
  }
}
layer {
  name: "conv3"
  type: "Convolution"
  bottom: "pool2"
  bottom: "filter_ip3"
  top: "conv3"
  param {
    name: "conv3_w"
    lr_mult: 1
    decay_mult: 1
  }
  param {
    name: "conv3_b"
    lr_mult: 2
    decay_mult: 0
  }
  convolution_param {
    num_output: 384
    pad: 1
    kernel_size: 3
    weight_filler {
      type: "msra"
    }
    bias_filler {
      type: "constant"
      value: 0
    }
    engine: CAFFE
    weight_operation: COPY
  }
}
layer {
  name: "bn_conv3"
  type: "BatchNorm"
  bottom: "conv3"
  top: "conv3"
  batch_norm_param {
    moving_average_fraction: 0.999
  }
}
layer {
  name: "scale_conv3"
  type: "Scale"
  bottom: "conv3"
  top: "conv3"
  scale_param {
    bias_term: true
  }
}
layer {
  name: "relu3"
  type: "ReLU"
  bottom: "conv3"
  top: "conv3"
}
layer {
  name: "filter_ip4"
  type: "InnerProduct"
  bottom: "embedding_fc2"
  top: "filter_ip4"
  param {
    lr_mult: 1
    decay_mult: 1
  }
  param {
    lr_mult: 2
    decay_mult: 0
  }
  inner_product_param {
    num_output: 663552
    weight_filler {
      type: "gaussian"
      std: 0.001
    }
    bias_filler {
      type: "constant"
      value: 0
    }
  }
}
layer {
  name: "conv4"
  type: "Convolution"
  bottom: "conv3"
  bottom: "filter_ip4"
  top: "conv4"
  param {
    name: "conv4_w"
    lr_mult: 1
    decay_mult: 1
  }
  param {
    name: "conv4_b"
    lr_mult: 2
    decay_mult: 0
  }
  convolution_param {
    num_output: 384
    pad: 1
    kernel_size: 3
    group: 2
    weight_filler {
      type: "msra"
    }
    bias_filler {
      type: "constant"
      value: 0
    }
    engine: CAFFE
    weight_operation: COPY
  }
}
layer {
  name: "bn_conv4"
  type: "BatchNorm"
  bottom: "conv4"
  top: "conv4"
  batch_norm_param {
    moving_average_fraction: 0.999
  }
}
layer {
  name: "scale_conv4"
  type: "Scale"
  bottom: "conv4"
  top: "conv4"
  scale_param {
    bias_term: true
  }
}
layer {
  name: "relu4"
  type: "ReLU"
  bottom: "conv4"
  top: "conv4"
}
layer {
  name: "filter_ip5"
  type: "InnerProduct"
  bottom: "embedding_fc2"
  top: "filter_ip5"
  param {
    lr_mult: 1
    decay_mult: 1
  }
  param {
    lr_mult: 2
    decay_mult: 0
  }
  inner_product_param {
    num_output: 442368
    weight_filler {
      type: "gaussian"
      std: 0.001
    }
    bias_filler {
      type: "constant"
      value: 0
    }
  }
}
layer {
  name: "conv5"
  type: "Convolution"
  bottom: "conv4"
  bottom: "filter_ip5"
  top: "conv5"
  param {
    name: "conv5_w"
    lr_mult: 1
    decay_mult: 1
  }
  param {
    name: "conv5_b"
    lr_mult: 2
    decay_mult: 0
  }
  convolution_param {
    num_output: 256
    pad: 1
    kernel_size: 3
    group: 2
    weight_filler {
      type: "msra"
    }
    bias_filler {
      type: "constant"
      value: 0
    }
    engine: CAFFE
    weight_operation: COPY
  }
}
layer {
  name: "bn_conv5"
  type: "BatchNorm"
  bottom: "conv5"
  top: "conv5"
  batch_norm_param {
    moving_average_fraction: 0.999
  }
}
layer {
  name: "scale_conv5"
  type: "Scale"
  bottom: "conv5"
  top: "conv5"
  scale_param {
    bias_term: true
  }
}
layer {
  name: "relu5"
  type: "ReLU"
  bottom: "conv5"
  top: "conv5"
}
layer {
  name: "pool5"
  type: "Pooling"
  bottom: "conv5"
  top: "pool5"
  pooling_param {
    pool: MAX
    kernel_size: 3
    stride: 2
  }
}
layer {
  name: "filter_ip6"
  type: "InnerProduct"
  bottom: "embedding_fc2"
  top: "filter_ip6"
  param {
    lr_mult: 1
    decay_mult: 1
  }
  param {
    lr_mult: 2
    decay_mult: 0
  }
  inner_product_param {
    num_output: 4718592
    weight_filler {
      type: "gaussian"
      std: 0.001
    }
    bias_filler {
      type: "constant"
      value: 0
    }
  }
}
layer {
  name: "feat0"
  type: "Convolution"
  bottom: "pool5"
  bottom: "filter_ip6"
  top: "feat0"
  param {
    lr_mult: 1
    decay_mult: 1
  }
  param {
    lr_mult: 2
    decay_mult: 0
  }
  convolution_param {
    num_output: 512
    kernel_size: 6
    weight_filler {
      type: "msra"
    }
    bias_filler {
      type: "constant"
      value: 0
    }
    engine: CAFFE
    weight_operation: COPY
  }
}
layer {
  name: "bn_feat0"
  type: "BatchNorm"
  bottom: "feat0"
  top: "feat0"
  batch_norm_param {
    moving_average_fraction: 0.999
  }
}
layer {
  name: "scale_feat0"
  type: "Scale"
  bottom: "feat0"
  top: "feat0"
  scale_param {
    bias_term: true
  }
}
layer {
  name: "relu_feat0"
  type: "ReLU"
  bottom: "feat0"
  top: "feat0"
}
layer {
  name: "filter_ip7"
  type: "InnerProduct"
  bottom: "embedding_fc2"
  top: "filter_ip7"
  param {
    lr_mult: 1
    decay_mult: 1
  }
  param {
    lr_mult: 2
    decay_mult: 0
  }
  inner_product_param {
    num_output: 512
    weight_filler {
      type: "gaussian"
      std: 0.001
    }
    bias_filler {
      type: "constant"
      value: 0
    }
  }
}
layer {
  name: "feat1"
  type: "Convolution"
  bottom: "feat0"
  bottom: "filter_ip7"
  top: "feat1"
  param {
    lr_mult: 1
    decay_mult: 1
  }
  param {
    lr_mult: 2
    decay_mult: 0
  }
  convolution_param {
    num_output: 1
    kernel_size: 1
    weight_filler {
      type: "msra"
    }
    bias_filler {
      type: "constant"
      value: 0
    }
    engine: CAFFE
    weight_operation: COPY
  }
}
I0210 16:48:14.222962 16731 layer_factory.hpp:77] Creating layer input
I0210 16:48:14.222970 16731 net.cpp:84] Creating Layer input
I0210 16:48:14.222972 16731 net.cpp:380] input -> data
I0210 16:48:14.222980 16731 net.cpp:380] input -> extra
I0210 16:48:14.223073 16731 net.cpp:122] Setting up input
I0210 16:48:14.223078 16731 net.cpp:129] Top shape: 1 3 224 224 (150528)
I0210 16:48:14.223080 16731 net.cpp:129] Top shape: 1 2 1 1 (2)
I0210 16:48:14.223083 16731 net.cpp:137] Memory required for data: 602120
I0210 16:48:14.223084 16731 layer_factory.hpp:77] Creating layer embedding_fc1
I0210 16:48:14.223088 16731 net.cpp:84] Creating Layer embedding_fc1
I0210 16:48:14.223090 16731 net.cpp:406] embedding_fc1 <- extra
I0210 16:48:14.223094 16731 net.cpp:380] embedding_fc1 -> embedding_fc1
I0210 16:48:14.223198 16731 net.cpp:122] Setting up embedding_fc1
I0210 16:48:14.223203 16731 net.cpp:129] Top shape: 1 256 (256)
I0210 16:48:14.223204 16731 net.cpp:137] Memory required for data: 603144
I0210 16:48:14.223210 16731 layer_factory.hpp:77] Creating layer bn_embedding_fc1
I0210 16:48:14.223214 16731 net.cpp:84] Creating Layer bn_embedding_fc1
I0210 16:48:14.223217 16731 net.cpp:406] bn_embedding_fc1 <- embedding_fc1
I0210 16:48:14.223219 16731 net.cpp:367] bn_embedding_fc1 -> embedding_fc1 (in-place)
I0210 16:48:14.223382 16731 net.cpp:122] Setting up bn_embedding_fc1
I0210 16:48:14.223387 16731 net.cpp:129] Top shape: 1 256 (256)
I0210 16:48:14.223388 16731 net.cpp:137] Memory required for data: 604168
I0210 16:48:14.223394 16731 layer_factory.hpp:77] Creating layer scale_embedding_fc1
I0210 16:48:14.223397 16731 net.cpp:84] Creating Layer scale_embedding_fc1
I0210 16:48:14.223399 16731 net.cpp:406] scale_embedding_fc1 <- embedding_fc1
I0210 16:48:14.223402 16731 net.cpp:367] scale_embedding_fc1 -> embedding_fc1 (in-place)
I0210 16:48:14.223433 16731 layer_factory.hpp:77] Creating layer scale_embedding_fc1
I0210 16:48:14.223525 16731 net.cpp:122] Setting up scale_embedding_fc1
I0210 16:48:14.223527 16731 net.cpp:129] Top shape: 1 256 (256)
I0210 16:48:14.223529 16731 net.cpp:137] Memory required for data: 605192
I0210 16:48:14.223532 16731 layer_factory.hpp:77] Creating layer relu_embedding_fc1
I0210 16:48:14.223536 16731 net.cpp:84] Creating Layer relu_embedding_fc1
I0210 16:48:14.223538 16731 net.cpp:406] relu_embedding_fc1 <- embedding_fc1
I0210 16:48:14.223549 16731 net.cpp:367] relu_embedding_fc1 -> embedding_fc1 (in-place)
I0210 16:48:14.223940 16731 net.cpp:122] Setting up relu_embedding_fc1
I0210 16:48:14.223945 16731 net.cpp:129] Top shape: 1 256 (256)
I0210 16:48:14.223948 16731 net.cpp:137] Memory required for data: 606216
I0210 16:48:14.223950 16731 layer_factory.hpp:77] Creating layer embedding_fc2
I0210 16:48:14.223953 16731 net.cpp:84] Creating Layer embedding_fc2
I0210 16:48:14.223955 16731 net.cpp:406] embedding_fc2 <- embedding_fc1
I0210 16:48:14.223958 16731 net.cpp:380] embedding_fc2 -> embedding_fc2
I0210 16:48:14.224052 16731 net.cpp:122] Setting up embedding_fc2
I0210 16:48:14.224056 16731 net.cpp:129] Top shape: 1 1 (1)
I0210 16:48:14.224057 16731 net.cpp:137] Memory required for data: 606220
I0210 16:48:14.224062 16731 layer_factory.hpp:77] Creating layer embedding_fc2_embedding_fc2_0_split
I0210 16:48:14.224066 16731 net.cpp:84] Creating Layer embedding_fc2_embedding_fc2_0_split
I0210 16:48:14.224068 16731 net.cpp:406] embedding_fc2_embedding_fc2_0_split <- embedding_fc2
I0210 16:48:14.224071 16731 net.cpp:380] embedding_fc2_embedding_fc2_0_split -> embedding_fc2_embedding_fc2_0_split_0
I0210 16:48:14.224076 16731 net.cpp:380] embedding_fc2_embedding_fc2_0_split -> embedding_fc2_embedding_fc2_0_split_1
I0210 16:48:14.224079 16731 net.cpp:380] embedding_fc2_embedding_fc2_0_split -> embedding_fc2_embedding_fc2_0_split_2
I0210 16:48:14.224083 16731 net.cpp:380] embedding_fc2_embedding_fc2_0_split -> embedding_fc2_embedding_fc2_0_split_3
I0210 16:48:14.224086 16731 net.cpp:380] embedding_fc2_embedding_fc2_0_split -> embedding_fc2_embedding_fc2_0_split_4
I0210 16:48:14.224090 16731 net.cpp:380] embedding_fc2_embedding_fc2_0_split -> embedding_fc2_embedding_fc2_0_split_5
I0210 16:48:14.224164 16731 net.cpp:122] Setting up embedding_fc2_embedding_fc2_0_split
I0210 16:48:14.224166 16731 net.cpp:129] Top shape: 1 1 (1)
I0210 16:48:14.224169 16731 net.cpp:129] Top shape: 1 1 (1)
I0210 16:48:14.224170 16731 net.cpp:129] Top shape: 1 1 (1)
I0210 16:48:14.224174 16731 net.cpp:129] Top shape: 1 1 (1)
I0210 16:48:14.224175 16731 net.cpp:129] Top shape: 1 1 (1)
I0210 16:48:14.224177 16731 net.cpp:129] Top shape: 1 1 (1)
I0210 16:48:14.224179 16731 net.cpp:137] Memory required for data: 606244
I0210 16:48:14.224180 16731 layer_factory.hpp:77] Creating layer conv1
I0210 16:48:14.224186 16731 net.cpp:84] Creating Layer conv1
I0210 16:48:14.224189 16731 net.cpp:406] conv1 <- data
I0210 16:48:14.224191 16731 net.cpp:380] conv1 -> conv1
I0210 16:48:14.224642 16731 net.cpp:122] Setting up conv1
I0210 16:48:14.224647 16731 net.cpp:129] Top shape: 1 96 54 54 (279936)
I0210 16:48:14.224649 16731 net.cpp:137] Memory required for data: 1725988
I0210 16:48:14.224653 16731 layer_factory.hpp:77] Creating layer bn_conv1
I0210 16:48:14.224656 16731 net.cpp:84] Creating Layer bn_conv1
I0210 16:48:14.224658 16731 net.cpp:406] bn_conv1 <- conv1
I0210 16:48:14.224661 16731 net.cpp:367] bn_conv1 -> conv1 (in-place)
I0210 16:48:14.224834 16731 net.cpp:122] Setting up bn_conv1
I0210 16:48:14.224838 16731 net.cpp:129] Top shape: 1 96 54 54 (279936)
I0210 16:48:14.224840 16731 net.cpp:137] Memory required for data: 2845732
I0210 16:48:14.224844 16731 layer_factory.hpp:77] Creating layer scale_conv1
I0210 16:48:14.224848 16731 net.cpp:84] Creating Layer scale_conv1
I0210 16:48:14.224849 16731 net.cpp:406] scale_conv1 <- conv1
I0210 16:48:14.224853 16731 net.cpp:367] scale_conv1 -> conv1 (in-place)
I0210 16:48:14.224884 16731 layer_factory.hpp:77] Creating layer scale_conv1
I0210 16:48:14.224984 16731 net.cpp:122] Setting up scale_conv1
I0210 16:48:14.224988 16731 net.cpp:129] Top shape: 1 96 54 54 (279936)
I0210 16:48:14.224990 16731 net.cpp:137] Memory required for data: 3965476
I0210 16:48:14.224993 16731 layer_factory.hpp:77] Creating layer relu1
I0210 16:48:14.224997 16731 net.cpp:84] Creating Layer relu1
I0210 16:48:14.224999 16731 net.cpp:406] relu1 <- conv1
I0210 16:48:14.225001 16731 net.cpp:367] relu1 -> conv1 (in-place)
I0210 16:48:14.225319 16731 net.cpp:122] Setting up relu1
I0210 16:48:14.225324 16731 net.cpp:129] Top shape: 1 96 54 54 (279936)
I0210 16:48:14.225327 16731 net.cpp:137] Memory required for data: 5085220
I0210 16:48:14.225328 16731 layer_factory.hpp:77] Creating layer pool1
I0210 16:48:14.225332 16731 net.cpp:84] Creating Layer pool1
I0210 16:48:14.225334 16731 net.cpp:406] pool1 <- conv1
I0210 16:48:14.225337 16731 net.cpp:380] pool1 -> pool1
I0210 16:48:14.225373 16731 net.cpp:122] Setting up pool1
I0210 16:48:14.225378 16731 net.cpp:129] Top shape: 1 96 27 27 (69984)
I0210 16:48:14.225379 16731 net.cpp:137] Memory required for data: 5365156
I0210 16:48:14.225381 16731 layer_factory.hpp:77] Creating layer filter_ip2
I0210 16:48:14.225384 16731 net.cpp:84] Creating Layer filter_ip2
I0210 16:48:14.225386 16731 net.cpp:406] filter_ip2 <- embedding_fc2_embedding_fc2_0_split_0
I0210 16:48:14.225389 16731 net.cpp:380] filter_ip2 -> filter_ip2
I0210 16:48:14.228530 16731 net.cpp:122] Setting up filter_ip2
I0210 16:48:14.228540 16731 net.cpp:129] Top shape: 1 307200 (307200)
I0210 16:48:14.228543 16731 net.cpp:137] Memory required for data: 6593956
I0210 16:48:14.228550 16731 layer_factory.hpp:77] Creating layer conv2
I0210 16:48:14.228557 16731 net.cpp:84] Creating Layer conv2
I0210 16:48:14.228560 16731 net.cpp:406] conv2 <- pool1
I0210 16:48:14.228564 16731 net.cpp:406] conv2 <- filter_ip2
I0210 16:48:14.228566 16731 net.cpp:380] conv2 -> conv2
I0210 16:48:14.231150 16731 net.cpp:122] Setting up conv2
I0210 16:48:14.231158 16731 net.cpp:129] Top shape: 1 256 27 27 (186624)
I0210 16:48:14.231160 16731 net.cpp:137] Memory required for data: 7340452
I0210 16:48:14.231164 16731 layer_factory.hpp:77] Creating layer bn_conv2
I0210 16:48:14.231170 16731 net.cpp:84] Creating Layer bn_conv2
I0210 16:48:14.231173 16731 net.cpp:406] bn_conv2 <- conv2
I0210 16:48:14.231175 16731 net.cpp:367] bn_conv2 -> conv2 (in-place)
I0210 16:48:14.231350 16731 net.cpp:122] Setting up bn_conv2
I0210 16:48:14.231354 16731 net.cpp:129] Top shape: 1 256 27 27 (186624)
I0210 16:48:14.231356 16731 net.cpp:137] Memory required for data: 8086948
I0210 16:48:14.231360 16731 layer_factory.hpp:77] Creating layer scale_conv2
I0210 16:48:14.231365 16731 net.cpp:84] Creating Layer scale_conv2
I0210 16:48:14.231367 16731 net.cpp:406] scale_conv2 <- conv2
I0210 16:48:14.231369 16731 net.cpp:367] scale_conv2 -> conv2 (in-place)
I0210 16:48:14.231403 16731 layer_factory.hpp:77] Creating layer scale_conv2
I0210 16:48:14.231503 16731 net.cpp:122] Setting up scale_conv2
I0210 16:48:14.231506 16731 net.cpp:129] Top shape: 1 256 27 27 (186624)
I0210 16:48:14.231508 16731 net.cpp:137] Memory required for data: 8833444
I0210 16:48:14.231511 16731 layer_factory.hpp:77] Creating layer relu2
I0210 16:48:14.231516 16731 net.cpp:84] Creating Layer relu2
I0210 16:48:14.231518 16731 net.cpp:406] relu2 <- conv2
I0210 16:48:14.231521 16731 net.cpp:367] relu2 -> conv2 (in-place)
I0210 16:48:14.232054 16731 net.cpp:122] Setting up relu2
I0210 16:48:14.232060 16731 net.cpp:129] Top shape: 1 256 27 27 (186624)
I0210 16:48:14.232064 16731 net.cpp:137] Memory required for data: 9579940
I0210 16:48:14.232065 16731 layer_factory.hpp:77] Creating layer pool2
I0210 16:48:14.232069 16731 net.cpp:84] Creating Layer pool2
I0210 16:48:14.232071 16731 net.cpp:406] pool2 <- conv2
I0210 16:48:14.232075 16731 net.cpp:380] pool2 -> pool2
I0210 16:48:14.232113 16731 net.cpp:122] Setting up pool2
I0210 16:48:14.232116 16731 net.cpp:129] Top shape: 1 256 13 13 (43264)
I0210 16:48:14.232118 16731 net.cpp:137] Memory required for data: 9752996
I0210 16:48:14.232120 16731 layer_factory.hpp:77] Creating layer filter_ip3
I0210 16:48:14.232125 16731 net.cpp:84] Creating Layer filter_ip3
I0210 16:48:14.232126 16731 net.cpp:406] filter_ip3 <- embedding_fc2_embedding_fc2_0_split_1
I0210 16:48:14.232129 16731 net.cpp:380] filter_ip3 -> filter_ip3
I0210 16:48:14.239461 16731 net.cpp:122] Setting up filter_ip3
I0210 16:48:14.239475 16731 net.cpp:129] Top shape: 1 884736 (884736)
I0210 16:48:14.239476 16731 net.cpp:137] Memory required for data: 13291940
I0210 16:48:14.239502 16731 layer_factory.hpp:77] Creating layer conv3
I0210 16:48:14.239512 16731 net.cpp:84] Creating Layer conv3
I0210 16:48:14.239516 16731 net.cpp:406] conv3 <- pool2
I0210 16:48:14.239518 16731 net.cpp:406] conv3 <- filter_ip3
I0210 16:48:14.239522 16731 net.cpp:380] conv3 -> conv3
I0210 16:48:14.245904 16731 net.cpp:122] Setting up conv3
I0210 16:48:14.245916 16731 net.cpp:129] Top shape: 1 384 13 13 (64896)
I0210 16:48:14.245918 16731 net.cpp:137] Memory required for data: 13551524
I0210 16:48:14.245923 16731 layer_factory.hpp:77] Creating layer bn_conv3
I0210 16:48:14.245929 16731 net.cpp:84] Creating Layer bn_conv3
I0210 16:48:14.245932 16731 net.cpp:406] bn_conv3 <- conv3
I0210 16:48:14.245935 16731 net.cpp:367] bn_conv3 -> conv3 (in-place)
I0210 16:48:14.246148 16731 net.cpp:122] Setting up bn_conv3
I0210 16:48:14.246153 16731 net.cpp:129] Top shape: 1 384 13 13 (64896)
I0210 16:48:14.246155 16731 net.cpp:137] Memory required for data: 13811108
I0210 16:48:14.246160 16731 layer_factory.hpp:77] Creating layer scale_conv3
I0210 16:48:14.246163 16731 net.cpp:84] Creating Layer scale_conv3
I0210 16:48:14.246166 16731 net.cpp:406] scale_conv3 <- conv3
I0210 16:48:14.246168 16731 net.cpp:367] scale_conv3 -> conv3 (in-place)
I0210 16:48:14.246199 16731 layer_factory.hpp:77] Creating layer scale_conv3
I0210 16:48:14.246300 16731 net.cpp:122] Setting up scale_conv3
I0210 16:48:14.246304 16731 net.cpp:129] Top shape: 1 384 13 13 (64896)
I0210 16:48:14.246306 16731 net.cpp:137] Memory required for data: 14070692
I0210 16:48:14.246312 16731 layer_factory.hpp:77] Creating layer relu3
I0210 16:48:14.246316 16731 net.cpp:84] Creating Layer relu3
I0210 16:48:14.246318 16731 net.cpp:406] relu3 <- conv3
I0210 16:48:14.246321 16731 net.cpp:367] relu3 -> conv3 (in-place)
I0210 16:48:14.246644 16731 net.cpp:122] Setting up relu3
I0210 16:48:14.246649 16731 net.cpp:129] Top shape: 1 384 13 13 (64896)
I0210 16:48:14.246651 16731 net.cpp:137] Memory required for data: 14330276
I0210 16:48:14.246654 16731 layer_factory.hpp:77] Creating layer filter_ip4
I0210 16:48:14.246657 16731 net.cpp:84] Creating Layer filter_ip4
I0210 16:48:14.246660 16731 net.cpp:406] filter_ip4 <- embedding_fc2_embedding_fc2_0_split_2
I0210 16:48:14.246665 16731 net.cpp:380] filter_ip4 -> filter_ip4
I0210 16:48:14.252261 16731 net.cpp:122] Setting up filter_ip4
I0210 16:48:14.252271 16731 net.cpp:129] Top shape: 1 663552 (663552)
I0210 16:48:14.252274 16731 net.cpp:137] Memory required for data: 16984484
I0210 16:48:14.252279 16731 layer_factory.hpp:77] Creating layer conv4
I0210 16:48:14.252286 16731 net.cpp:84] Creating Layer conv4
I0210 16:48:14.252290 16731 net.cpp:406] conv4 <- conv3
I0210 16:48:14.252292 16731 net.cpp:406] conv4 <- filter_ip4
I0210 16:48:14.252296 16731 net.cpp:380] conv4 -> conv4
I0210 16:48:14.257091 16731 net.cpp:122] Setting up conv4
I0210 16:48:14.257099 16731 net.cpp:129] Top shape: 1 384 13 13 (64896)
I0210 16:48:14.257102 16731 net.cpp:137] Memory required for data: 17244068
I0210 16:48:14.257107 16731 layer_factory.hpp:77] Creating layer bn_conv4
I0210 16:48:14.257112 16731 net.cpp:84] Creating Layer bn_conv4
I0210 16:48:14.257113 16731 net.cpp:406] bn_conv4 <- conv4
I0210 16:48:14.257117 16731 net.cpp:367] bn_conv4 -> conv4 (in-place)
I0210 16:48:14.257295 16731 net.cpp:122] Setting up bn_conv4
I0210 16:48:14.257299 16731 net.cpp:129] Top shape: 1 384 13 13 (64896)
I0210 16:48:14.257300 16731 net.cpp:137] Memory required for data: 17503652
I0210 16:48:14.257305 16731 layer_factory.hpp:77] Creating layer scale_conv4
I0210 16:48:14.257309 16731 net.cpp:84] Creating Layer scale_conv4
I0210 16:48:14.257311 16731 net.cpp:406] scale_conv4 <- conv4
I0210 16:48:14.257314 16731 net.cpp:367] scale_conv4 -> conv4 (in-place)
I0210 16:48:14.257344 16731 layer_factory.hpp:77] Creating layer scale_conv4
I0210 16:48:14.257444 16731 net.cpp:122] Setting up scale_conv4
I0210 16:48:14.257448 16731 net.cpp:129] Top shape: 1 384 13 13 (64896)
I0210 16:48:14.257450 16731 net.cpp:137] Memory required for data: 17763236
I0210 16:48:14.257473 16731 layer_factory.hpp:77] Creating layer relu4
I0210 16:48:14.257477 16731 net.cpp:84] Creating Layer relu4
I0210 16:48:14.257479 16731 net.cpp:406] relu4 <- conv4
I0210 16:48:14.257483 16731 net.cpp:367] relu4 -> conv4 (in-place)
I0210 16:48:14.257810 16731 net.cpp:122] Setting up relu4
I0210 16:48:14.257815 16731 net.cpp:129] Top shape: 1 384 13 13 (64896)
I0210 16:48:14.257817 16731 net.cpp:137] Memory required for data: 18022820
I0210 16:48:14.257819 16731 layer_factory.hpp:77] Creating layer filter_ip5
I0210 16:48:14.257823 16731 net.cpp:84] Creating Layer filter_ip5
I0210 16:48:14.257827 16731 net.cpp:406] filter_ip5 <- embedding_fc2_embedding_fc2_0_split_3
I0210 16:48:14.257830 16731 net.cpp:380] filter_ip5 -> filter_ip5
I0210 16:48:14.261744 16731 net.cpp:122] Setting up filter_ip5
I0210 16:48:14.261754 16731 net.cpp:129] Top shape: 1 442368 (442368)
I0210 16:48:14.261755 16731 net.cpp:137] Memory required for data: 19792292
I0210 16:48:14.261760 16731 layer_factory.hpp:77] Creating layer conv5
I0210 16:48:14.261767 16731 net.cpp:84] Creating Layer conv5
I0210 16:48:14.261770 16731 net.cpp:406] conv5 <- conv4
I0210 16:48:14.261773 16731 net.cpp:406] conv5 <- filter_ip5
I0210 16:48:14.261776 16731 net.cpp:380] conv5 -> conv5
I0210 16:48:14.265142 16731 net.cpp:122] Setting up conv5
I0210 16:48:14.265149 16731 net.cpp:129] Top shape: 1 256 13 13 (43264)
I0210 16:48:14.265152 16731 net.cpp:137] Memory required for data: 19965348
I0210 16:48:14.265156 16731 layer_factory.hpp:77] Creating layer bn_conv5
I0210 16:48:14.265161 16731 net.cpp:84] Creating Layer bn_conv5
I0210 16:48:14.265162 16731 net.cpp:406] bn_conv5 <- conv5
I0210 16:48:14.265166 16731 net.cpp:367] bn_conv5 -> conv5 (in-place)
I0210 16:48:14.265343 16731 net.cpp:122] Setting up bn_conv5
I0210 16:48:14.265347 16731 net.cpp:129] Top shape: 1 256 13 13 (43264)
I0210 16:48:14.265348 16731 net.cpp:137] Memory required for data: 20138404
I0210 16:48:14.265353 16731 layer_factory.hpp:77] Creating layer scale_conv5
I0210 16:48:14.265357 16731 net.cpp:84] Creating Layer scale_conv5
I0210 16:48:14.265359 16731 net.cpp:406] scale_conv5 <- conv5
I0210 16:48:14.265362 16731 net.cpp:367] scale_conv5 -> conv5 (in-place)
I0210 16:48:14.265394 16731 layer_factory.hpp:77] Creating layer scale_conv5
I0210 16:48:14.265492 16731 net.cpp:122] Setting up scale_conv5
I0210 16:48:14.265496 16731 net.cpp:129] Top shape: 1 256 13 13 (43264)
I0210 16:48:14.265497 16731 net.cpp:137] Memory required for data: 20311460
I0210 16:48:14.265501 16731 layer_factory.hpp:77] Creating layer relu5
I0210 16:48:14.265506 16731 net.cpp:84] Creating Layer relu5
I0210 16:48:14.265508 16731 net.cpp:406] relu5 <- conv5
I0210 16:48:14.265511 16731 net.cpp:367] relu5 -> conv5 (in-place)
I0210 16:48:14.265980 16731 net.cpp:122] Setting up relu5
I0210 16:48:14.265986 16731 net.cpp:129] Top shape: 1 256 13 13 (43264)
I0210 16:48:14.265988 16731 net.cpp:137] Memory required for data: 20484516
I0210 16:48:14.265990 16731 layer_factory.hpp:77] Creating layer pool5
I0210 16:48:14.265995 16731 net.cpp:84] Creating Layer pool5
I0210 16:48:14.265997 16731 net.cpp:406] pool5 <- conv5
I0210 16:48:14.266006 16731 net.cpp:380] pool5 -> pool5
I0210 16:48:14.266046 16731 net.cpp:122] Setting up pool5
I0210 16:48:14.266049 16731 net.cpp:129] Top shape: 1 256 6 6 (9216)
I0210 16:48:14.266052 16731 net.cpp:137] Memory required for data: 20521380
I0210 16:48:14.266053 16731 layer_factory.hpp:77] Creating layer filter_ip6
I0210 16:48:14.266057 16731 net.cpp:84] Creating Layer filter_ip6
I0210 16:48:14.266060 16731 net.cpp:406] filter_ip6 <- embedding_fc2_embedding_fc2_0_split_4
I0210 16:48:14.266063 16731 net.cpp:380] filter_ip6 -> filter_ip6
I0210 16:48:14.303297 16731 net.cpp:122] Setting up filter_ip6
I0210 16:48:14.303316 16731 net.cpp:129] Top shape: 1 4718592 (4718592)
I0210 16:48:14.303319 16731 net.cpp:137] Memory required for data: 39395748
I0210 16:48:14.303325 16731 layer_factory.hpp:77] Creating layer feat0
I0210 16:48:14.303335 16731 net.cpp:84] Creating Layer feat0
I0210 16:48:14.303362 16731 net.cpp:406] feat0 <- pool5
I0210 16:48:14.303367 16731 net.cpp:406] feat0 <- filter_ip6
I0210 16:48:14.303371 16731 net.cpp:380] feat0 -> feat0
I0210 16:48:14.335315 16731 net.cpp:122] Setting up feat0
I0210 16:48:14.335330 16731 net.cpp:129] Top shape: 1 512 1 1 (512)
I0210 16:48:14.335331 16731 net.cpp:137] Memory required for data: 39397796
I0210 16:48:14.335337 16731 layer_factory.hpp:77] Creating layer bn_feat0
I0210 16:48:14.335345 16731 net.cpp:84] Creating Layer bn_feat0
I0210 16:48:14.335347 16731 net.cpp:406] bn_feat0 <- feat0
I0210 16:48:14.335351 16731 net.cpp:367] bn_feat0 -> feat0 (in-place)
I0210 16:48:14.335537 16731 net.cpp:122] Setting up bn_feat0
I0210 16:48:14.335541 16731 net.cpp:129] Top shape: 1 512 1 1 (512)
I0210 16:48:14.335542 16731 net.cpp:137] Memory required for data: 39399844
I0210 16:48:14.335547 16731 layer_factory.hpp:77] Creating layer scale_feat0
I0210 16:48:14.335551 16731 net.cpp:84] Creating Layer scale_feat0
I0210 16:48:14.335553 16731 net.cpp:406] scale_feat0 <- feat0
I0210 16:48:14.335556 16731 net.cpp:367] scale_feat0 -> feat0 (in-place)
I0210 16:48:14.335588 16731 layer_factory.hpp:77] Creating layer scale_feat0
I0210 16:48:14.335690 16731 net.cpp:122] Setting up scale_feat0
I0210 16:48:14.335695 16731 net.cpp:129] Top shape: 1 512 1 1 (512)
I0210 16:48:14.335695 16731 net.cpp:137] Memory required for data: 39401892
I0210 16:48:14.335700 16731 layer_factory.hpp:77] Creating layer relu_feat0
I0210 16:48:14.335703 16731 net.cpp:84] Creating Layer relu_feat0
I0210 16:48:14.335705 16731 net.cpp:406] relu_feat0 <- feat0
I0210 16:48:14.335707 16731 net.cpp:367] relu_feat0 -> feat0 (in-place)
I0210 16:48:14.336066 16731 net.cpp:122] Setting up relu_feat0
I0210 16:48:14.336071 16731 net.cpp:129] Top shape: 1 512 1 1 (512)
I0210 16:48:14.336072 16731 net.cpp:137] Memory required for data: 39403940
I0210 16:48:14.336074 16731 layer_factory.hpp:77] Creating layer filter_ip7
I0210 16:48:14.336079 16731 net.cpp:84] Creating Layer filter_ip7
I0210 16:48:14.336081 16731 net.cpp:406] filter_ip7 <- embedding_fc2_embedding_fc2_0_split_5
I0210 16:48:14.336086 16731 net.cpp:380] filter_ip7 -> filter_ip7
I0210 16:48:14.336190 16731 net.cpp:122] Setting up filter_ip7
I0210 16:48:14.336194 16731 net.cpp:129] Top shape: 1 512 (512)
I0210 16:48:14.336196 16731 net.cpp:137] Memory required for data: 39405988
I0210 16:48:14.336199 16731 layer_factory.hpp:77] Creating layer feat1
I0210 16:48:14.336205 16731 net.cpp:84] Creating Layer feat1
I0210 16:48:14.336207 16731 net.cpp:406] feat1 <- feat0
I0210 16:48:14.336210 16731 net.cpp:406] feat1 <- filter_ip7
I0210 16:48:14.336213 16731 net.cpp:380] feat1 -> feat1
I0210 16:48:14.336450 16731 net.cpp:122] Setting up feat1
I0210 16:48:14.336454 16731 net.cpp:129] Top shape: 1 1 1 1 (1)
I0210 16:48:14.336455 16731 net.cpp:137] Memory required for data: 39405992
I0210 16:48:14.336463 16731 net.cpp:200] feat1 does not need backward computation.
I0210 16:48:14.336467 16731 net.cpp:200] filter_ip7 does not need backward computation.
I0210 16:48:14.336468 16731 net.cpp:200] relu_feat0 does not need backward computation.
I0210 16:48:14.336470 16731 net.cpp:200] scale_feat0 does not need backward computation.
…
