…
I1104 23:37:20.437510 12945 net.cpp:51] Initializing net from parameters: 
name: "AlexNet-train-ignet"
state {
  phase: TRAIN
  level: 0
  stage: ""
}
layer {
  name: "data"
  type: "ImageData"
  top: "data"
  top: "label"
  top: "extra"
  transform_param {
    scale: 0.0039215689
    mirror: true
    crop_size: 224
    mean_file: "../../data/1/256_train_mean.binaryproto"
  }
  image_data_param {
    source: "../../data/1/train_1.txt"
    batch_size: 32
    shuffle: true
    new_height: 256
    new_width: 256
    root_folder: "../../data/faces/"
    reference: false
  }
}
layer {
  name: "embedding_fc1"
  type: "InnerProduct"
  bottom: "extra"
  top: "embedding_fc1"
  param {
    lr_mult: 0.1
    decay_mult: 0.1
  }
  param {
    lr_mult: 0.2
    decay_mult: 0
  }
  inner_product_param {
    num_output: 256
    weight_filler {
      type: "gaussian"
      std: 0.001
    }
    bias_filler {
      type: "constant"
      value: 0
    }
  }
}
layer {
  name: "bn_embedding_fc1"
  type: "BatchNorm"
  bottom: "embedding_fc1"
  top: "embedding_fc1"
  batch_norm_param {
    moving_average_fraction: 0.999
  }
}
layer {
  name: "scale_embedding_fc1"
  type: "Scale"
  bottom: "embedding_fc1"
  top: "embedding_fc1"
  scale_param {
    bias_term: true
  }
}
layer {
  name: "relu_embedding_fc1"
  type: "ReLU"
  bottom: "embedding_fc1"
  top: "embedding_fc1"
}
layer {
  name: "embedding_fc2"
  type: "InnerProduct"
  bottom: "embedding_fc1"
  top: "embedding_fc2"
  param {
    lr_mult: 0.1
    decay_mult: 0.1
  }
  param {
    lr_mult: 0.2
    decay_mult: 0
  }
  inner_product_param {
    num_output: 1
    weight_filler {
      type: "gaussian"
      std: 0.001
    }
    bias_filler {
      type: "constant"
      value: 0
    }
  }
}
layer {
  name: "conv1"
  type: "Convolution"
  bottom: "data"
  top: "conv1"
  param {
    name: "conv1_w"
    lr_mult: 1
    decay_mult: 1
  }
  param {
    name: "conv1_b"
    lr_mult: 2
    decay_mult: 0
  }
  convolution_param {
    num_output: 96
    kernel_size: 11
    stride: 4
    weight_filler {
      type: "msra"
    }
    bias_filler {
      type: "constant"
      value: 0
    }
    engine: CAFFE
  }
}
layer {
  name: "bn_conv1"
  type: "BatchNorm"
  bottom: "conv1"
  top: "conv1"
  batch_norm_param {
    moving_average_fraction: 0.999
  }
}
layer {
  name: "scale_conv1"
  type: "Scale"
  bottom: "conv1"
  top: "conv1"
  scale_param {
    bias_term: true
  }
}
layer {
  name: "relu1"
  type: "ReLU"
  bottom: "conv1"
  top: "conv1"
}
layer {
  name: "pool1"
  type: "Pooling"
  bottom: "conv1"
  top: "pool1"
  pooling_param {
    pool: MAX
    kernel_size: 3
    stride: 2
  }
}
layer {
  name: "filter_ip2"
  type: "InnerProduct"
  bottom: "embedding_fc2"
  top: "filter_ip2"
  param {
    lr_mult: 1
    decay_mult: 1
  }
  param {
    lr_mult: 2
    decay_mult: 0
  }
  inner_product_param {
    num_output: 307200
    weight_filler {
      type: "gaussian"
      std: 0.001
    }
    bias_filler {
      type: "constant"
      value: 0
    }
  }
}
layer {
  name: "conv2"
  type: "Convolution"
  bottom: "pool1"
  bottom: "filter_ip2"
  top: "conv2"
  param {
    name: "conv2_w"
    lr_mult: 1
    decay_mult: 1
  }
  param {
    name: "conv2_b"
    lr_mult: 2
    decay_mult: 0
  }
  convolution_param {
    num_output: 256
    pad: 2
    kernel_size: 5
    group: 2
    weight_filler {
      type: "msra"
    }
    bias_filler {
      type: "constant"
      value: 0
    }
    engine: CAFFE
    weight_operation: COPY
  }
}
layer {
  name: "bn_conv2"
  type: "BatchNorm"
  bottom: "conv2"
  top: "conv2"
  batch_norm_param {
    moving_average_fraction: 0.999
  }
}
layer {
  name: "scale_conv2"
  type: "Scale"
  bottom: "conv2"
  top: "conv2"
  scale_param {
    bias_term: true
  }
}
layer {
  name: "relu2"
  type: "ReLU"
  bottom: "conv2"
  top: "conv2"
}
layer {
  name: "pool2"
  type: "Pooling"
  bottom: "conv2"
  top: "pool2"
  pooling_param {
    pool: MAX
    kernel_size: 3
    stride: 2
  }
}
layer {
  name: "filter_ip3"
  type: "InnerProduct"
  bottom: "embedding_fc2"
  top: "filter_ip3"
  param {
    lr_mult: 1
    decay_mult: 1
  }
  param {
    lr_mult: 2
    decay_mult: 0
  }
  inner_product_param {
    num_output: 884736
    weight_filler {
      type: "gaussian"
      std: 0.001
    }
    bias_filler {
      type: "constant"
      value: 0
    }
  }
}
layer {
  name: "conv3"
  type: "Convolution"
  bottom: "pool2"
  bottom: "filter_ip3"
  top: "conv3"
  param {
    name: "conv3_w"
    lr_mult: 1
    decay_mult: 1
  }
  param {
    name: "conv3_b"
    lr_mult: 2
    decay_mult: 0
  }
  convolution_param {
    num_output: 384
    pad: 1
    kernel_size: 3
    weight_filler {
      type: "msra"
    }
    bias_filler {
      type: "constant"
      value: 0
    }
    engine: CAFFE
    weight_operation: COPY
  }
}
layer {
  name: "bn_conv3"
  type: "BatchNorm"
  bottom: "conv3"
  top: "conv3"
  batch_norm_param {
    moving_average_fraction: 0.999
  }
}
layer {
  name: "scale_conv3"
  type: "Scale"
  bottom: "conv3"
  top: "conv3"
  scale_param {
    bias_term: true
  }
}
layer {
  name: "relu3"
  type: "ReLU"
  bottom: "conv3"
  top: "conv3"
}
layer {
  name: "filter_ip4"
  type: "InnerProduct"
  bottom: "embedding_fc2"
  top: "filter_ip4"
  param {
    lr_mult: 1
    decay_mult: 1
  }
  param {
    lr_mult: 2
    decay_mult: 0
  }
  inner_product_param {
    num_output: 663552
    weight_filler {
      type: "gaussian"
      std: 0.001
    }
    bias_filler {
      type: "constant"
      value: 0
    }
  }
}
layer {
  name: "conv4"
  type: "Convolution"
  bottom: "conv3"
  bottom: "filter_ip4"
  top: "conv4"
  param {
    name: "conv4_w"
    lr_mult: 1
    decay_mult: 1
  }
  param {
    name: "conv4_b"
    lr_mult: 2
    decay_mult: 0
  }
  convolution_param {
    num_output: 384
    pad: 1
    kernel_size: 3
    group: 2
    weight_filler {
      type: "msra"
    }
    bias_filler {
      type: "constant"
      value: 0
    }
    engine: CAFFE
    weight_operation: COPY
  }
}
layer {
  name: "bn_conv4"
  type: "BatchNorm"
  bottom: "conv4"
  top: "conv4"
  batch_norm_param {
    moving_average_fraction: 0.999
  }
}
layer {
  name: "scale_conv4"
  type: "Scale"
  bottom: "conv4"
  top: "conv4"
  scale_param {
    bias_term: true
  }
}
layer {
  name: "relu4"
  type: "ReLU"
  bottom: "conv4"
  top: "conv4"
}
layer {
  name: "filter_ip5"
  type: "InnerProduct"
  bottom: "embedding_fc2"
  top: "filter_ip5"
  param {
    lr_mult: 1
    decay_mult: 1
  }
  param {
    lr_mult: 2
    decay_mult: 0
  }
  inner_product_param {
    num_output: 442368
    weight_filler {
      type: "gaussian"
      std: 0.001
    }
    bias_filler {
      type: "constant"
      value: 0
    }
  }
}
layer {
  name: "conv5"
  type: "Convolution"
  bottom: "conv4"
  bottom: "filter_ip5"
  top: "conv5"
  param {
    name: "conv5_w"
    lr_mult: 1
    decay_mult: 1
  }
  param {
    name: "conv5_b"
    lr_mult: 2
    decay_mult: 0
  }
  convolution_param {
    num_output: 256
    pad: 1
    kernel_size: 3
    group: 2
    weight_filler {
      type: "msra"
    }
    bias_filler {
      type: "constant"
      value: 0
    }
    engine: CAFFE
    weight_operation: COPY
  }
}
layer {
  name: "bn_conv5"
  type: "BatchNorm"
  bottom: "conv5"
  top: "conv5"
  batch_norm_param {
    moving_average_fraction: 0.999
  }
}
layer {
  name: "scale_conv5"
  type: "Scale"
  bottom: "conv5"
  top: "conv5"
  scale_param {
    bias_term: true
  }
}
layer {
  name: "relu5"
  type: "ReLU"
  bottom: "conv5"
  top: "conv5"
}
layer {
  name: "pool5"
  type: "Pooling"
  bottom: "conv5"
  top: "pool5"
  pooling_param {
    pool: MAX
    kernel_size: 3
    stride: 2
  }
}
layer {
  name: "filter_ip6"
  type: "InnerProduct"
  bottom: "embedding_fc2"
  top: "filter_ip6"
  param {
    lr_mult: 1
    decay_mult: 1
  }
  param {
    lr_mult: 2
    decay_mult: 0
  }
  inner_product_param {
    num_output: 4718592
    weight_filler {
      type: "gaussian"
      std: 0.001
    }
    bias_filler {
      type: "constant"
      value: 0
    }
  }
}
layer {
  name: "feat0"
  type: "Convolution"
  bottom: "pool5"
  bottom: "filter_ip6"
  top: "feat0"
  param {
    lr_mult: 1
    decay_mult: 1
  }
  param {
    lr_mult: 2
    decay_mult: 0
  }
  convolution_param {
    num_output: 512
    kernel_size: 6
    weight_filler {
      type: "msra"
    }
    bias_filler {
      type: "constant"
      value: 0
    }
    engine: CAFFE
    weight_operation: COPY
  }
}
layer {
  name: "bn_feat0"
  type: "BatchNorm"
  bottom: "feat0"
  top: "feat0"
  batch_norm_param {
    moving_average_fraction: 0.999
  }
}
layer {
  name: "scale_feat0"
  type: "Scale"
  bottom: "feat0"
  top: "feat0"
  scale_param {
    bias_term: true
  }
}
layer {
  name: "relu_feat0"
  type: "ReLU"
  bottom: "feat0"
  top: "feat0"
}
layer {
  name: "filter_ip7"
  type: "InnerProduct"
  bottom: "embedding_fc2"
  top: "filter_ip7"
  param {
    lr_mult: 1
    decay_mult: 1
  }
  param {
    lr_mult: 2
    decay_mult: 0
  }
  inner_product_param {
    num_output: 512
    weight_filler {
      type: "gaussian"
      std: 0.001
    }
    bias_filler {
      type: "constant"
      value: 0
    }
  }
}
layer {
  name: "feat1"
  type: "Convolution"
  bottom: "feat0"
  bottom: "filter_ip7"
  top: "feat1"
  param {
    lr_mult: 1
    decay_mult: 1
  }
  param {
    lr_mult: 2
    decay_mult: 0
  }
  convolution_param {
    num_output: 1
    kernel_size: 1
    weight_filler {
      type: "msra"
    }
    bias_filler {
      type: "constant"
      value: 0
    }
    engine: CAFFE
    weight_operation: COPY
  }
}
layer {
  name: "eucli_loss"
  type: "EuclideanLoss"
  bottom: "feat1"
  bottom: "label"
  top: "eucli_loss"
}
I1104 23:37:20.437808 12945 layer_factory.hpp:77] Creating layer data
I1104 23:37:20.437831 12945 net.cpp:84] Creating Layer data
I1104 23:37:20.437839 12945 net.cpp:380] data -> data
I1104 23:37:20.437852 12945 net.cpp:380] data -> label
I1104 23:37:20.437861 12945 net.cpp:380] data -> extra
I1104 23:37:20.437871 12945 data_transformer.cpp:28] Loading mean file from: ../../data/1/256_train_mean.binaryproto
I1104 23:37:20.439896 12945 image_data_layer.cpp:38] Opening file ../../data/1/train_1.txt
I1104 23:37:20.440618 12945 image_data_layer.cpp:53] Shuffling data
I1104 23:37:20.440714 12945 image_data_layer.cpp:63] A total of 4400 images.
I1104 23:37:20.443140 12945 image_data_layer.cpp:90] output data size: 32,3,224,224
I1104 23:37:20.467213 12945 net.cpp:122] Setting up data
I1104 23:37:20.467260 12945 net.cpp:129] Top shape: 32 3 224 224 (4816896)
I1104 23:37:20.467267 12945 net.cpp:129] Top shape: 32 (32)
I1104 23:37:20.467270 12945 net.cpp:129] Top shape: 32 2 1 1 (64)
I1104 23:37:20.467272 12945 net.cpp:137] Memory required for data: 19267968
I1104 23:37:20.467280 12945 layer_factory.hpp:77] Creating layer embedding_fc1
I1104 23:37:20.467293 12945 net.cpp:84] Creating Layer embedding_fc1
I1104 23:37:20.467298 12945 net.cpp:406] embedding_fc1 <- extra
I1104 23:37:20.467309 12945 net.cpp:380] embedding_fc1 -> embedding_fc1
I1104 23:37:20.468209 12945 net.cpp:122] Setting up embedding_fc1
I1104 23:37:20.468236 12945 net.cpp:129] Top shape: 32 256 (8192)
I1104 23:37:20.468240 12945 net.cpp:137] Memory required for data: 19300736
I1104 23:37:20.468256 12945 layer_factory.hpp:77] Creating layer bn_embedding_fc1
I1104 23:37:20.468266 12945 net.cpp:84] Creating Layer bn_embedding_fc1
I1104 23:37:20.468269 12945 net.cpp:406] bn_embedding_fc1 <- embedding_fc1
I1104 23:37:20.468273 12945 net.cpp:367] bn_embedding_fc1 -> embedding_fc1 (in-place)
I1104 23:37:20.468374 12945 net.cpp:122] Setting up bn_embedding_fc1
I1104 23:37:20.468394 12945 net.cpp:129] Top shape: 32 256 (8192)
I1104 23:37:20.468397 12945 net.cpp:137] Memory required for data: 19333504
I1104 23:37:20.468405 12945 layer_factory.hpp:77] Creating layer scale_embedding_fc1
I1104 23:37:20.468410 12945 net.cpp:84] Creating Layer scale_embedding_fc1
I1104 23:37:20.468412 12945 net.cpp:406] scale_embedding_fc1 <- embedding_fc1
I1104 23:37:20.468417 12945 net.cpp:367] scale_embedding_fc1 -> embedding_fc1 (in-place)
I1104 23:37:20.468442 12945 layer_factory.hpp:77] Creating layer scale_embedding_fc1
I1104 23:37:20.468499 12945 net.cpp:122] Setting up scale_embedding_fc1
I1104 23:37:20.468505 12945 net.cpp:129] Top shape: 32 256 (8192)
I1104 23:37:20.468508 12945 net.cpp:137] Memory required for data: 19366272
I1104 23:37:20.468511 12945 layer_factory.hpp:77] Creating layer relu_embedding_fc1
I1104 23:37:20.468518 12945 net.cpp:84] Creating Layer relu_embedding_fc1
I1104 23:37:20.468519 12945 net.cpp:406] relu_embedding_fc1 <- embedding_fc1
I1104 23:37:20.468523 12945 net.cpp:367] relu_embedding_fc1 -> embedding_fc1 (in-place)
I1104 23:37:20.874176 12945 net.cpp:122] Setting up relu_embedding_fc1
I1104 23:37:20.874198 12945 net.cpp:129] Top shape: 32 256 (8192)
I1104 23:37:20.874202 12945 net.cpp:137] Memory required for data: 19399040
I1104 23:37:20.874208 12945 layer_factory.hpp:77] Creating layer embedding_fc2
I1104 23:37:20.874218 12945 net.cpp:84] Creating Layer embedding_fc2
I1104 23:37:20.874222 12945 net.cpp:406] embedding_fc2 <- embedding_fc1
I1104 23:37:20.874228 12945 net.cpp:380] embedding_fc2 -> embedding_fc2
I1104 23:37:20.874317 12945 net.cpp:122] Setting up embedding_fc2
I1104 23:37:20.874323 12945 net.cpp:129] Top shape: 32 1 (32)
I1104 23:37:20.874326 12945 net.cpp:137] Memory required for data: 19399168
I1104 23:37:20.874333 12945 layer_factory.hpp:77] Creating layer embedding_fc2_embedding_fc2_0_split
I1104 23:37:20.874339 12945 net.cpp:84] Creating Layer embedding_fc2_embedding_fc2_0_split
I1104 23:37:20.874342 12945 net.cpp:406] embedding_fc2_embedding_fc2_0_split <- embedding_fc2
I1104 23:37:20.874347 12945 net.cpp:380] embedding_fc2_embedding_fc2_0_split -> embedding_fc2_embedding_fc2_0_split_0
I1104 23:37:20.874352 12945 net.cpp:380] embedding_fc2_embedding_fc2_0_split -> embedding_fc2_embedding_fc2_0_split_1
I1104 23:37:20.874359 12945 net.cpp:380] embedding_fc2_embedding_fc2_0_split -> embedding_fc2_embedding_fc2_0_split_2
I1104 23:37:20.874364 12945 net.cpp:380] embedding_fc2_embedding_fc2_0_split -> embedding_fc2_embedding_fc2_0_split_3
I1104 23:37:20.874370 12945 net.cpp:380] embedding_fc2_embedding_fc2_0_split -> embedding_fc2_embedding_fc2_0_split_4
I1104 23:37:20.874374 12945 net.cpp:380] embedding_fc2_embedding_fc2_0_split -> embedding_fc2_embedding_fc2_0_split_5
I1104 23:37:20.874429 12945 net.cpp:122] Setting up embedding_fc2_embedding_fc2_0_split
I1104 23:37:20.874434 12945 net.cpp:129] Top shape: 32 1 (32)
I1104 23:37:20.874437 12945 net.cpp:129] Top shape: 32 1 (32)
I1104 23:37:20.874439 12945 net.cpp:129] Top shape: 32 1 (32)
I1104 23:37:20.874442 12945 net.cpp:129] Top shape: 32 1 (32)
I1104 23:37:20.874445 12945 net.cpp:129] Top shape: 32 1 (32)
I1104 23:37:20.874447 12945 net.cpp:129] Top shape: 32 1 (32)
I1104 23:37:20.874449 12945 net.cpp:137] Memory required for data: 19399936
I1104 23:37:20.874452 12945 layer_factory.hpp:77] Creating layer conv1
I1104 23:37:20.874462 12945 net.cpp:84] Creating Layer conv1
I1104 23:37:20.874465 12945 net.cpp:406] conv1 <- data
I1104 23:37:20.874472 12945 net.cpp:380] conv1 -> conv1
I1104 23:37:20.875993 12945 net.cpp:122] Setting up conv1
I1104 23:37:20.876004 12945 net.cpp:129] Top shape: 32 96 54 54 (8957952)
I1104 23:37:20.876008 12945 net.cpp:137] Memory required for data: 55231744
I1104 23:37:20.876013 12945 layer_factory.hpp:77] Creating layer bn_conv1
I1104 23:37:20.876021 12945 net.cpp:84] Creating Layer bn_conv1
I1104 23:37:20.876024 12945 net.cpp:406] bn_conv1 <- conv1
I1104 23:37:20.876029 12945 net.cpp:367] bn_conv1 -> conv1 (in-place)
I1104 23:37:20.876173 12945 net.cpp:122] Setting up bn_conv1
I1104 23:37:20.876196 12945 net.cpp:129] Top shape: 32 96 54 54 (8957952)
I1104 23:37:20.876199 12945 net.cpp:137] Memory required for data: 91063552
I1104 23:37:20.876204 12945 layer_factory.hpp:77] Creating layer scale_conv1
I1104 23:37:20.876209 12945 net.cpp:84] Creating Layer scale_conv1
I1104 23:37:20.876211 12945 net.cpp:406] scale_conv1 <- conv1
I1104 23:37:20.876215 12945 net.cpp:367] scale_conv1 -> conv1 (in-place)
I1104 23:37:20.876243 12945 layer_factory.hpp:77] Creating layer scale_conv1
I1104 23:37:20.876324 12945 net.cpp:122] Setting up scale_conv1
I1104 23:37:20.876330 12945 net.cpp:129] Top shape: 32 96 54 54 (8957952)
I1104 23:37:20.876333 12945 net.cpp:137] Memory required for data: 126895360
I1104 23:37:20.876338 12945 layer_factory.hpp:77] Creating layer relu1
I1104 23:37:20.876341 12945 net.cpp:84] Creating Layer relu1
I1104 23:37:20.876345 12945 net.cpp:406] relu1 <- conv1
I1104 23:37:20.876348 12945 net.cpp:367] relu1 -> conv1 (in-place)
I1104 23:37:20.876701 12945 net.cpp:122] Setting up relu1
I1104 23:37:20.876709 12945 net.cpp:129] Top shape: 32 96 54 54 (8957952)
I1104 23:37:20.876713 12945 net.cpp:137] Memory required for data: 162727168
I1104 23:37:20.876714 12945 layer_factory.hpp:77] Creating layer pool1
I1104 23:37:20.876720 12945 net.cpp:84] Creating Layer pool1
I1104 23:37:20.876722 12945 net.cpp:406] pool1 <- conv1
I1104 23:37:20.876726 12945 net.cpp:380] pool1 -> pool1
I1104 23:37:20.876765 12945 net.cpp:122] Setting up pool1
I1104 23:37:20.876770 12945 net.cpp:129] Top shape: 32 96 27 27 (2239488)
I1104 23:37:20.876771 12945 net.cpp:137] Memory required for data: 171685120
I1104 23:37:20.876775 12945 layer_factory.hpp:77] Creating layer filter_ip2
I1104 23:37:20.876780 12945 net.cpp:84] Creating Layer filter_ip2
I1104 23:37:20.876781 12945 net.cpp:406] filter_ip2 <- embedding_fc2_embedding_fc2_0_split_0
I1104 23:37:20.876786 12945 net.cpp:380] filter_ip2 -> filter_ip2
I1104 23:37:20.879356 12945 net.cpp:122] Setting up filter_ip2
I1104 23:37:20.879369 12945 net.cpp:129] Top shape: 32 307200 (9830400)
I1104 23:37:20.879371 12945 net.cpp:137] Memory required for data: 211006720
I1104 23:37:20.879379 12945 layer_factory.hpp:77] Creating layer conv2
I1104 23:37:20.879388 12945 net.cpp:84] Creating Layer conv2
I1104 23:37:20.879392 12945 net.cpp:406] conv2 <- pool1
I1104 23:37:20.879397 12945 net.cpp:406] conv2 <- filter_ip2
I1104 23:37:20.879401 12945 net.cpp:380] conv2 -> conv2
I1104 23:37:20.881927 12945 net.cpp:122] Setting up conv2
I1104 23:37:20.881938 12945 net.cpp:129] Top shape: 32 256 27 27 (5971968)
I1104 23:37:20.881942 12945 net.cpp:137] Memory required for data: 234894592
I1104 23:37:20.881947 12945 layer_factory.hpp:77] Creating layer bn_conv2
I1104 23:37:20.881953 12945 net.cpp:84] Creating Layer bn_conv2
I1104 23:37:20.881956 12945 net.cpp:406] bn_conv2 <- conv2
I1104 23:37:20.881959 12945 net.cpp:367] bn_conv2 -> conv2 (in-place)
I1104 23:37:20.882094 12945 net.cpp:122] Setting up bn_conv2
I1104 23:37:20.882102 12945 net.cpp:129] Top shape: 32 256 27 27 (5971968)
I1104 23:37:20.882103 12945 net.cpp:137] Memory required for data: 258782464
I1104 23:37:20.882108 12945 layer_factory.hpp:77] Creating layer scale_conv2
I1104 23:37:20.882113 12945 net.cpp:84] Creating Layer scale_conv2
I1104 23:37:20.882117 12945 net.cpp:406] scale_conv2 <- conv2
I1104 23:37:20.882119 12945 net.cpp:367] scale_conv2 -> conv2 (in-place)
I1104 23:37:20.882148 12945 layer_factory.hpp:77] Creating layer scale_conv2
I1104 23:37:20.882225 12945 net.cpp:122] Setting up scale_conv2
I1104 23:37:20.882231 12945 net.cpp:129] Top shape: 32 256 27 27 (5971968)
I1104 23:37:20.882234 12945 net.cpp:137] Memory required for data: 282670336
I1104 23:37:20.882238 12945 layer_factory.hpp:77] Creating layer relu2
I1104 23:37:20.882244 12945 net.cpp:84] Creating Layer relu2
I1104 23:37:20.882247 12945 net.cpp:406] relu2 <- conv2
I1104 23:37:20.882252 12945 net.cpp:367] relu2 -> conv2 (in-place)
I1104 23:37:20.882742 12945 net.cpp:122] Setting up relu2
I1104 23:37:20.882752 12945 net.cpp:129] Top shape: 32 256 27 27 (5971968)
I1104 23:37:20.882771 12945 net.cpp:137] Memory required for data: 306558208
I1104 23:37:20.882776 12945 layer_factory.hpp:77] Creating layer pool2
I1104 23:37:20.882782 12945 net.cpp:84] Creating Layer pool2
I1104 23:37:20.882786 12945 net.cpp:406] pool2 <- conv2
I1104 23:37:20.882791 12945 net.cpp:380] pool2 -> pool2
I1104 23:37:20.882827 12945 net.cpp:122] Setting up pool2
I1104 23:37:20.882831 12945 net.cpp:129] Top shape: 32 256 13 13 (1384448)
I1104 23:37:20.882833 12945 net.cpp:137] Memory required for data: 312096000
I1104 23:37:20.882836 12945 layer_factory.hpp:77] Creating layer filter_ip3
I1104 23:37:20.882843 12945 net.cpp:84] Creating Layer filter_ip3
I1104 23:37:20.882844 12945 net.cpp:406] filter_ip3 <- embedding_fc2_embedding_fc2_0_split_1
I1104 23:37:20.882848 12945 net.cpp:380] filter_ip3 -> filter_ip3
I1104 23:37:20.890122 12945 net.cpp:122] Setting up filter_ip3
I1104 23:37:20.890139 12945 net.cpp:129] Top shape: 32 884736 (28311552)
I1104 23:37:20.890142 12945 net.cpp:137] Memory required for data: 425342208
I1104 23:37:20.890149 12945 layer_factory.hpp:77] Creating layer conv3
I1104 23:37:20.890162 12945 net.cpp:84] Creating Layer conv3
I1104 23:37:20.890167 12945 net.cpp:406] conv3 <- pool2
I1104 23:37:20.890172 12945 net.cpp:406] conv3 <- filter_ip3
I1104 23:37:20.890177 12945 net.cpp:380] conv3 -> conv3
I1104 23:37:20.896472 12945 net.cpp:122] Setting up conv3
I1104 23:37:20.896488 12945 net.cpp:129] Top shape: 32 384 13 13 (2076672)
I1104 23:37:20.896492 12945 net.cpp:137] Memory required for data: 433648896
I1104 23:37:20.896497 12945 layer_factory.hpp:77] Creating layer bn_conv3
I1104 23:37:20.896502 12945 net.cpp:84] Creating Layer bn_conv3
I1104 23:37:20.896505 12945 net.cpp:406] bn_conv3 <- conv3
I1104 23:37:20.896509 12945 net.cpp:367] bn_conv3 -> conv3 (in-place)
I1104 23:37:20.896641 12945 net.cpp:122] Setting up bn_conv3
I1104 23:37:20.896647 12945 net.cpp:129] Top shape: 32 384 13 13 (2076672)
I1104 23:37:20.896651 12945 net.cpp:137] Memory required for data: 441955584
I1104 23:37:20.896656 12945 layer_factory.hpp:77] Creating layer scale_conv3
I1104 23:37:20.896661 12945 net.cpp:84] Creating Layer scale_conv3
I1104 23:37:20.896663 12945 net.cpp:406] scale_conv3 <- conv3
I1104 23:37:20.896667 12945 net.cpp:367] scale_conv3 -> conv3 (in-place)
I1104 23:37:20.896693 12945 layer_factory.hpp:77] Creating layer scale_conv3
I1104 23:37:20.896771 12945 net.cpp:122] Setting up scale_conv3
I1104 23:37:20.896777 12945 net.cpp:129] Top shape: 32 384 13 13 (2076672)
I1104 23:37:20.896780 12945 net.cpp:137] Memory required for data: 450262272
I1104 23:37:20.896788 12945 layer_factory.hpp:77] Creating layer relu3
I1104 23:37:20.896793 12945 net.cpp:84] Creating Layer relu3
I1104 23:37:20.896796 12945 net.cpp:406] relu3 <- conv3
I1104 23:37:20.896800 12945 net.cpp:367] relu3 -> conv3 (in-place)
I1104 23:37:20.897135 12945 net.cpp:122] Setting up relu3
I1104 23:37:20.897142 12945 net.cpp:129] Top shape: 32 384 13 13 (2076672)
I1104 23:37:20.897145 12945 net.cpp:137] Memory required for data: 458568960
I1104 23:37:20.897147 12945 layer_factory.hpp:77] Creating layer filter_ip4
I1104 23:37:20.897153 12945 net.cpp:84] Creating Layer filter_ip4
I1104 23:37:20.897156 12945 net.cpp:406] filter_ip4 <- embedding_fc2_embedding_fc2_0_split_2
I1104 23:37:20.897162 12945 net.cpp:380] filter_ip4 -> filter_ip4
I1104 23:37:20.902724 12945 net.cpp:122] Setting up filter_ip4
I1104 23:37:20.902741 12945 net.cpp:129] Top shape: 32 663552 (21233664)
I1104 23:37:20.902745 12945 net.cpp:137] Memory required for data: 543503616
I1104 23:37:20.902752 12945 layer_factory.hpp:77] Creating layer conv4
I1104 23:37:20.902762 12945 net.cpp:84] Creating Layer conv4
I1104 23:37:20.902767 12945 net.cpp:406] conv4 <- conv3
I1104 23:37:20.902772 12945 net.cpp:406] conv4 <- filter_ip4
I1104 23:37:20.902779 12945 net.cpp:380] conv4 -> conv4
I1104 23:37:20.907594 12945 net.cpp:122] Setting up conv4
I1104 23:37:20.907609 12945 net.cpp:129] Top shape: 32 384 13 13 (2076672)
I1104 23:37:20.907613 12945 net.cpp:137] Memory required for data: 551810304
I1104 23:37:20.907634 12945 layer_factory.hpp:77] Creating layer bn_conv4
I1104 23:37:20.907644 12945 net.cpp:84] Creating Layer bn_conv4
I1104 23:37:20.907646 12945 net.cpp:406] bn_conv4 <- conv4
I1104 23:37:20.907652 12945 net.cpp:367] bn_conv4 -> conv4 (in-place)
I1104 23:37:20.907799 12945 net.cpp:122] Setting up bn_conv4
I1104 23:37:20.907804 12945 net.cpp:129] Top shape: 32 384 13 13 (2076672)
I1104 23:37:20.907807 12945 net.cpp:137] Memory required for data: 560116992
I1104 23:37:20.907812 12945 layer_factory.hpp:77] Creating layer scale_conv4
I1104 23:37:20.907817 12945 net.cpp:84] Creating Layer scale_conv4
I1104 23:37:20.907820 12945 net.cpp:406] scale_conv4 <- conv4
I1104 23:37:20.907824 12945 net.cpp:367] scale_conv4 -> conv4 (in-place)
I1104 23:37:20.907851 12945 layer_factory.hpp:77] Creating layer scale_conv4
I1104 23:37:20.907932 12945 net.cpp:122] Setting up scale_conv4
I1104 23:37:20.907938 12945 net.cpp:129] Top shape: 32 384 13 13 (2076672)
I1104 23:37:20.907940 12945 net.cpp:137] Memory required for data: 568423680
I1104 23:37:20.907945 12945 layer_factory.hpp:77] Creating layer relu4
I1104 23:37:20.907950 12945 net.cpp:84] Creating Layer relu4
I1104 23:37:20.907953 12945 net.cpp:406] relu4 <- conv4
I1104 23:37:20.907956 12945 net.cpp:367] relu4 -> conv4 (in-place)
I1104 23:37:20.908303 12945 net.cpp:122] Setting up relu4
I1104 23:37:20.908311 12945 net.cpp:129] Top shape: 32 384 13 13 (2076672)
I1104 23:37:20.908314 12945 net.cpp:137] Memory required for data: 576730368
I1104 23:37:20.908318 12945 layer_factory.hpp:77] Creating layer filter_ip5
I1104 23:37:20.908324 12945 net.cpp:84] Creating Layer filter_ip5
I1104 23:37:20.908327 12945 net.cpp:406] filter_ip5 <- embedding_fc2_embedding_fc2_0_split_3
I1104 23:37:20.908334 12945 net.cpp:380] filter_ip5 -> filter_ip5
I1104 23:37:20.912241 12945 net.cpp:122] Setting up filter_ip5
I1104 23:37:20.912252 12945 net.cpp:129] Top shape: 32 442368 (14155776)
I1104 23:37:20.912256 12945 net.cpp:137] Memory required for data: 633353472
I1104 23:37:20.912261 12945 layer_factory.hpp:77] Creating layer conv5
I1104 23:37:20.912269 12945 net.cpp:84] Creating Layer conv5
I1104 23:37:20.912272 12945 net.cpp:406] conv5 <- conv4
I1104 23:37:20.912277 12945 net.cpp:406] conv5 <- filter_ip5
I1104 23:37:20.912282 12945 net.cpp:380] conv5 -> conv5
I1104 23:37:20.915609 12945 net.cpp:122] Setting up conv5
I1104 23:37:20.915621 12945 net.cpp:129] Top shape: 32 256 13 13 (1384448)
I1104 23:37:20.915623 12945 net.cpp:137] Memory required for data: 638891264
I1104 23:37:20.915628 12945 layer_factory.hpp:77] Creating layer bn_conv5
I1104 23:37:20.915633 12945 net.cpp:84] Creating Layer bn_conv5
I1104 23:37:20.915637 12945 net.cpp:406] bn_conv5 <- conv5
I1104 23:37:20.915642 12945 net.cpp:367] bn_conv5 -> conv5 (in-place)
I1104 23:37:20.915786 12945 net.cpp:122] Setting up bn_conv5
I1104 23:37:20.915792 12945 net.cpp:129] Top shape: 32 256 13 13 (1384448)
I1104 23:37:20.915796 12945 net.cpp:137] Memory required for data: 644429056
I1104 23:37:20.915802 12945 layer_factory.hpp:77] Creating layer scale_conv5
I1104 23:37:20.915807 12945 net.cpp:84] Creating Layer scale_conv5
I1104 23:37:20.915810 12945 net.cpp:406] scale_conv5 <- conv5
I1104 23:37:20.915814 12945 net.cpp:367] scale_conv5 -> conv5 (in-place)
I1104 23:37:20.915844 12945 layer_factory.hpp:77] Creating layer scale_conv5
I1104 23:37:20.915923 12945 net.cpp:122] Setting up scale_conv5
I1104 23:37:20.915930 12945 net.cpp:129] Top shape: 32 256 13 13 (1384448)
I1104 23:37:20.915932 12945 net.cpp:137] Memory required for data: 649966848
I1104 23:37:20.915937 12945 layer_factory.hpp:77] Creating layer relu5
I1104 23:37:20.915946 12945 net.cpp:84] Creating Layer relu5
I1104 23:37:20.915949 12945 net.cpp:406] relu5 <- conv5
I1104 23:37:20.915953 12945 net.cpp:367] relu5 -> conv5 (in-place)
I1104 23:37:20.916421 12945 net.cpp:122] Setting up relu5
I1104 23:37:20.916430 12945 net.cpp:129] Top shape: 32 256 13 13 (1384448)
I1104 23:37:20.916433 12945 net.cpp:137] Memory required for data: 655504640
I1104 23:37:20.916450 12945 layer_factory.hpp:77] Creating layer pool5
I1104 23:37:20.916457 12945 net.cpp:84] Creating Layer pool5
I1104 23:37:20.916460 12945 net.cpp:406] pool5 <- conv5
I1104 23:37:20.916466 12945 net.cpp:380] pool5 -> pool5
I1104 23:37:20.916501 12945 net.cpp:122] Setting up pool5
I1104 23:37:20.916508 12945 net.cpp:129] Top shape: 32 256 6 6 (294912)
I1104 23:37:20.916512 12945 net.cpp:137] Memory required for data: 656684288
I1104 23:37:20.916513 12945 layer_factory.hpp:77] Creating layer filter_ip6
I1104 23:37:20.916518 12945 net.cpp:84] Creating Layer filter_ip6
I1104 23:37:20.916522 12945 net.cpp:406] filter_ip6 <- embedding_fc2_embedding_fc2_0_split_4
I1104 23:37:20.916527 12945 net.cpp:380] filter_ip6 -> filter_ip6
I1104 23:37:20.954192 12945 net.cpp:122] Setting up filter_ip6
I1104 23:37:20.954217 12945 net.cpp:129] Top shape: 32 4718592 (150994944)
I1104 23:37:20.954221 12945 net.cpp:137] Memory required for data: 1260664064
I1104 23:37:20.954229 12945 layer_factory.hpp:77] Creating layer feat0
I1104 23:37:20.954241 12945 net.cpp:84] Creating Layer feat0
I1104 23:37:20.954246 12945 net.cpp:406] feat0 <- pool5
I1104 23:37:20.954255 12945 net.cpp:406] feat0 <- filter_ip6
I1104 23:37:20.954260 12945 net.cpp:380] feat0 -> feat0
I1104 23:37:20.986625 12945 net.cpp:122] Setting up feat0
I1104 23:37:20.986646 12945 net.cpp:129] Top shape: 32 512 1 1 (16384)
I1104 23:37:20.986649 12945 net.cpp:137] Memory required for data: 1260729600
I1104 23:37:20.986655 12945 layer_factory.hpp:77] Creating layer bn_feat0
I1104 23:37:20.986663 12945 net.cpp:84] Creating Layer bn_feat0
I1104 23:37:20.986666 12945 net.cpp:406] bn_feat0 <- feat0
I1104 23:37:20.986672 12945 net.cpp:367] bn_feat0 -> feat0 (in-place)
I1104 23:37:20.986815 12945 net.cpp:122] Setting up bn_feat0
I1104 23:37:20.986821 12945 net.cpp:129] Top shape: 32 512 1 1 (16384)
I1104 23:37:20.986824 12945 net.cpp:137] Memory required for data: 1260795136
I1104 23:37:20.986829 12945 layer_factory.hpp:77] Creating layer scale_feat0
I1104 23:37:20.986835 12945 net.cpp:84] Creating Layer scale_feat0
I1104 23:37:20.986838 12945 net.cpp:406] scale_feat0 <- feat0
I1104 23:37:20.986841 12945 net.cpp:367] scale_feat0 -> feat0 (in-place)
I1104 23:37:20.986871 12945 layer_factory.hpp:77] Creating layer scale_feat0
I1104 23:37:20.986954 12945 net.cpp:122] Setting up scale_feat0
I1104 23:37:20.986960 12945 net.cpp:129] Top shape: 32 512 1 1 (16384)
I1104 23:37:20.986963 12945 net.cpp:137] Memory required for data: 1260860672
I1104 23:37:20.986966 12945 layer_factory.hpp:77] Creating layer relu_feat0
I1104 23:37:20.986970 12945 net.cpp:84] Creating Layer relu_feat0
I1104 23:37:20.986974 12945 net.cpp:406] relu_feat0 <- feat0
I1104 23:37:20.986977 12945 net.cpp:367] relu_feat0 -> feat0 (in-place)
I1104 23:37:20.987326 12945 net.cpp:122] Setting up relu_feat0
I1104 23:37:20.987334 12945 net.cpp:129] Top shape: 32 512 1 1 (16384)
I1104 23:37:20.987337 12945 net.cpp:137] Memory required for data: 1260926208
I1104 23:37:20.987339 12945 layer_factory.hpp:77] Creating layer filter_ip7
I1104 23:37:20.987346 12945 net.cpp:84] Creating Layer filter_ip7
I1104 23:37:20.987349 12945 net.cpp:406] filter_ip7 <- embedding_fc2_embedding_fc2_0_split_5
I1104 23:37:20.987354 12945 net.cpp:380] filter_ip7 -> filter_ip7
I1104 23:37:20.987439 12945 net.cpp:122] Setting up filter_ip7
I1104 23:37:20.987444 12945 net.cpp:129] Top shape: 32 512 (16384)
I1104 23:37:20.987447 12945 net.cpp:137] Memory required for data: 1260991744
I1104 23:37:20.987452 12945 layer_factory.hpp:77] Creating layer feat1
I1104 23:37:20.987458 12945 net.cpp:84] Creating Layer feat1
I1104 23:37:20.987462 12945 net.cpp:406] feat1 <- feat0
I1104 23:37:20.987464 12945 net.cpp:406] feat1 <- filter_ip7
I1104 23:37:20.987468 12945 net.cpp:380] feat1 -> feat1
I1104 23:37:20.987648 12945 net.cpp:122] Setting up feat1
I1104 23:37:20.987653 12945 net.cpp:129] Top shape: 32 1 1 1 (32)
I1104 23:37:20.987656 12945 net.cpp:137] Memory required for data: 1260991872
I1104 23:37:20.987666 12945 layer_factory.hpp:77] Creating layer eucli_loss
I1104 23:37:20.987689 12945 net.cpp:84] Creating Layer eucli_loss
I1104 23:37:20.987692 12945 net.cpp:406] eucli_loss <- feat1
I1104 23:37:20.987695 12945 net.cpp:406] eucli_loss <- label
I1104 23:37:20.987700 12945 net.cpp:380] eucli_loss -> eucli_loss
…
I1104 23:48:53.612455 12945 upgrade_proto.cpp:70] Successfully upgraded file specified using deprecated input fields.
W1104 23:48:53.612457 12945 upgrade_proto.cpp:72] Note that future Caffe releases will only support input layers and not input fields.
I1104 23:48:53.612638 12945 net.cpp:51] Initializing net from parameters: 
name: "AlexNet-aanet"
state {
  phase: TEST
  level: 0
}
layer {
  name: "input"
  type: "Input"
  top: "data"
  top: "extra"
  input_param {
    shape {
      dim: 1
      dim: 3
      dim: 224
      dim: 224
    }
    shape {
      dim: 1
      dim: 2
      dim: 1
      dim: 1
    }
  }
}
layer {
  name: "embedding_fc1"
  type: "InnerProduct"
  bottom: "extra"
  top: "embedding_fc1"
  param {
    lr_mult: 1
    decay_mult: 1
  }
  param {
    lr_mult: 2
    decay_mult: 0
  }
  inner_product_param {
    num_output: 256
    weight_filler {
      type: "gaussian"
      std: 0.001
    }
    bias_filler {
      type: "constant"
      value: 0
    }
  }
}
layer {
  name: "bn_embedding_fc1"
  type: "BatchNorm"
  bottom: "embedding_fc1"
  top: "embedding_fc1"
  batch_norm_param {
    moving_average_fraction: 0.999
  }
}
layer {
  name: "scale_embedding_fc1"
  type: "Scale"
  bottom: "embedding_fc1"
  top: "embedding_fc1"
  scale_param {
    bias_term: true
  }
}
layer {
  name: "relu_embedding_fc1"
  type: "ReLU"
  bottom: "embedding_fc1"
  top: "embedding_fc1"
}
layer {
  name: "embedding_fc2"
  type: "InnerProduct"
  bottom: "embedding_fc1"
  top: "embedding_fc2"
  param {
    lr_mult: 1
    decay_mult: 1
  }
  param {
    lr_mult: 2
    decay_mult: 0
  }
  inner_product_param {
    num_output: 1
    weight_filler {
      type: "gaussian"
      std: 0.001
    }
    bias_filler {
      type: "constant"
      value: 0
    }
  }
}
layer {
  name: "conv1"
  type: "Convolution"
  bottom: "data"
  top: "conv1"
  param {
    name: "conv1_w"
    lr_mult: 1
    decay_mult: 1
  }
  param {
    name: "conv1_b"
    lr_mult: 2
    decay_mult: 0
  }
  convolution_param {
    num_output: 96
    kernel_size: 11
    stride: 4
    weight_filler {
      type: "msra"
    }
    bias_filler {
      type: "constant"
      value: 0
    }
    engine: CAFFE
  }
}
layer {
  name: "bn_conv1"
  type: "BatchNorm"
  bottom: "conv1"
  top: "conv1"
  batch_norm_param {
    moving_average_fraction: 0.999
  }
}
layer {
  name: "scale_conv1"
  type: "Scale"
  bottom: "conv1"
  top: "conv1"
  scale_param {
    bias_term: true
  }
}
layer {
  name: "relu1"
  type: "ReLU"
  bottom: "conv1"
  top: "conv1"
}
layer {
  name: "pool1"
  type: "Pooling"
  bottom: "conv1"
  top: "pool1"
  pooling_param {
    pool: MAX
    kernel_size: 3
    stride: 2
  }
}
layer {
  name: "filter_ip2"
  type: "InnerProduct"
  bottom: "embedding_fc2"
  top: "filter_ip2"
  param {
    lr_mult: 1
    decay_mult: 1
  }
  param {
    lr_mult: 2
    decay_mult: 0
  }
  inner_product_param {
    num_output: 307200
    weight_filler {
      type: "gaussian"
      std: 0.001
    }
    bias_filler {
      type: "constant"
      value: 0
    }
  }
}
layer {
  name: "conv2"
  type: "Convolution"
  bottom: "pool1"
  bottom: "filter_ip2"
  top: "conv2"
  param {
    name: "conv2_w"
    lr_mult: 1
    decay_mult: 1
  }
  param {
    name: "conv2_b"
    lr_mult: 2
    decay_mult: 0
  }
  convolution_param {
    num_output: 256
    pad: 2
    kernel_size: 5
    group: 2
    weight_filler {
      type: "msra"
    }
    bias_filler {
      type: "constant"
      value: 0
    }
    engine: CAFFE
    weight_operation: COPY
  }
}
layer {
  name: "bn_conv2"
  type: "BatchNorm"
  bottom: "conv2"
  top: "conv2"
  batch_norm_param {
    moving_average_fraction: 0.999
  }
}
layer {
  name: "scale_conv2"
  type: "Scale"
  bottom: "conv2"
  top: "conv2"
  scale_param {
    bias_term: true
  }
}
layer {
  name: "relu2"
  type: "ReLU"
  bottom: "conv2"
  top: "conv2"
}
layer {
  name: "pool2"
  type: "Pooling"
  bottom: "conv2"
  top: "pool2"
  pooling_param {
    pool: MAX
    kernel_size: 3
    stride: 2
  }
}
layer {
  name: "filter_ip3"
  type: "InnerProduct"
  bottom: "embedding_fc2"
  top: "filter_ip3"
  param {
    lr_mult: 1
    decay_mult: 1
  }
  param {
    lr_mult: 2
    decay_mult: 0
  }
  inner_product_param {
    num_output: 884736
    weight_filler {
      type: "gaussian"
      std: 0.001
    }
    bias_filler {
      type: "constant"
      value: 0
    }
  }
}
layer {
  name: "conv3"
  type: "Convolution"
  bottom: "pool2"
  bottom: "filter_ip3"
  top: "conv3"
  param {
    name: "conv3_w"
    lr_mult: 1
    decay_mult: 1
  }
  param {
    name: "conv3_b"
    lr_mult: 2
    decay_mult: 0
  }
  convolution_param {
    num_output: 384
    pad: 1
    kernel_size: 3
    weight_filler {
      type: "msra"
    }
    bias_filler {
      type: "constant"
      value: 0
    }
    engine: CAFFE
    weight_operation: COPY
  }
}
layer {
  name: "bn_conv3"
  type: "BatchNorm"
  bottom: "conv3"
  top: "conv3"
  batch_norm_param {
    moving_average_fraction: 0.999
  }
}
layer {
  name: "scale_conv3"
  type: "Scale"
  bottom: "conv3"
  top: "conv3"
  scale_param {
    bias_term: true
  }
}
layer {
  name: "relu3"
  type: "ReLU"
  bottom: "conv3"
  top: "conv3"
}
layer {
  name: "filter_ip4"
  type: "InnerProduct"
  bottom: "embedding_fc2"
  top: "filter_ip4"
  param {
    lr_mult: 1
    decay_mult: 1
  }
  param {
    lr_mult: 2
    decay_mult: 0
  }
  inner_product_param {
    num_output: 663552
    weight_filler {
      type: "gaussian"
      std: 0.001
    }
    bias_filler {
      type: "constant"
      value: 0
    }
  }
}
layer {
  name: "conv4"
  type: "Convolution"
  bottom: "conv3"
  bottom: "filter_ip4"
  top: "conv4"
  param {
    name: "conv4_w"
    lr_mult: 1
    decay_mult: 1
  }
  param {
    name: "conv4_b"
    lr_mult: 2
    decay_mult: 0
  }
  convolution_param {
    num_output: 384
    pad: 1
    kernel_size: 3
    group: 2
    weight_filler {
      type: "msra"
    }
    bias_filler {
      type: "constant"
      value: 0
    }
    engine: CAFFE
    weight_operation: COPY
  }
}
layer {
  name: "bn_conv4"
  type: "BatchNorm"
  bottom: "conv4"
  top: "conv4"
  batch_norm_param {
    moving_average_fraction: 0.999
  }
}
layer {
  name: "scale_conv4"
  type: "Scale"
  bottom: "conv4"
  top: "conv4"
  scale_param {
    bias_term: true
  }
}
layer {
  name: "relu4"
  type: "ReLU"
  bottom: "conv4"
  top: "conv4"
}
layer {
  name: "filter_ip5"
  type: "InnerProduct"
  bottom: "embedding_fc2"
  top: "filter_ip5"
  param {
    lr_mult: 1
    decay_mult: 1
  }
  param {
    lr_mult: 2
    decay_mult: 0
  }
  inner_product_param {
    num_output: 442368
    weight_filler {
      type: "gaussian"
      std: 0.001
    }
    bias_filler {
      type: "constant"
      value: 0
    }
  }
}
layer {
  name: "conv5"
  type: "Convolution"
  bottom: "conv4"
  bottom: "filter_ip5"
  top: "conv5"
  param {
    name: "conv5_w"
    lr_mult: 1
    decay_mult: 1
  }
  param {
    name: "conv5_b"
    lr_mult: 2
    decay_mult: 0
  }
  convolution_param {
    num_output: 256
    pad: 1
    kernel_size: 3
    group: 2
    weight_filler {
      type: "msra"
    }
    bias_filler {
      type: "constant"
      value: 0
    }
    engine: CAFFE
    weight_operation: COPY
  }
}
layer {
  name: "bn_conv5"
  type: "BatchNorm"
  bottom: "conv5"
  top: "conv5"
  batch_norm_param {
    moving_average_fraction: 0.999
  }
}
layer {
  name: "scale_conv5"
  type: "Scale"
  bottom: "conv5"
  top: "conv5"
  scale_param {
    bias_term: true
  }
}
layer {
  name: "relu5"
  type: "ReLU"
  bottom: "conv5"
  top: "conv5"
}
layer {
  name: "pool5"
  type: "Pooling"
  bottom: "conv5"
  top: "pool5"
  pooling_param {
    pool: MAX
    kernel_size: 3
    stride: 2
  }
}
layer {
  name: "filter_ip6"
  type: "InnerProduct"
  bottom: "embedding_fc2"
  top: "filter_ip6"
  param {
    lr_mult: 1
    decay_mult: 1
  }
  param {
    lr_mult: 2
    decay_mult: 0
  }
  inner_product_param {
    num_output: 4718592
    weight_filler {
      type: "gaussian"
      std: 0.001
    }
    bias_filler {
      type: "constant"
      value: 0
    }
  }
}
layer {
  name: "feat0"
  type: "Convolution"
  bottom: "pool5"
  bottom: "filter_ip6"
  top: "feat0"
  param {
    lr_mult: 1
    decay_mult: 1
  }
  param {
    lr_mult: 2
    decay_mult: 0
  }
  convolution_param {
    num_output: 512
    kernel_size: 6
    weight_filler {
      type: "msra"
    }
    bias_filler {
      type: "constant"
      value: 0
    }
    engine: CAFFE
    weight_operation: COPY
  }
}
layer {
  name: "bn_feat0"
  type: "BatchNorm"
  bottom: "feat0"
  top: "feat0"
  batch_norm_param {
    moving_average_fraction: 0.999
  }
}
layer {
  name: "scale_feat0"
  type: "Scale"
  bottom: "feat0"
  top: "feat0"
  scale_param {
    bias_term: true
  }
}
layer {
  name: "relu_feat0"
  type: "ReLU"
  bottom: "feat0"
  top: "feat0"
}
layer {
  name: "filter_ip7"
  type: "InnerProduct"
  bottom: "embedding_fc2"
  top: "filter_ip7"
  param {
    lr_mult: 1
    decay_mult: 1
  }
  param {
    lr_mult: 2
    decay_mult: 0
  }
  inner_product_param {
    num_output: 512
    weight_filler {
      type: "gaussian"
      std: 0.001
    }
    bias_filler {
      type: "constant"
      value: 0
    }
  }
}
layer {
  name: "feat1"
  type: "Convolution"
  bottom: "feat0"
  bottom: "filter_ip7"
  top: "feat1"
  param {
    lr_mult: 1
    decay_mult: 1
  }
  param {
    lr_mult: 2
    decay_mult: 0
  }
  convolution_param {
    num_output: 1
    kernel_size: 1
    weight_filler {
      type: "msra"
    }
    bias_filler {
      type: "constant"
      value: 0
    }
    engine: CAFFE
    weight_operation: COPY
  }
}
I1104 23:48:53.612723 12945 layer_factory.hpp:77] Creating layer input
I1104 23:48:53.612730 12945 net.cpp:84] Creating Layer input
I1104 23:48:53.612732 12945 net.cpp:380] input -> data
I1104 23:48:53.612740 12945 net.cpp:380] input -> extra
I1104 23:48:53.612833 12945 net.cpp:122] Setting up input
I1104 23:48:53.612838 12945 net.cpp:129] Top shape: 1 3 224 224 (150528)
I1104 23:48:53.612840 12945 net.cpp:129] Top shape: 1 2 1 1 (2)
I1104 23:48:53.612841 12945 net.cpp:137] Memory required for data: 602120
I1104 23:48:53.612843 12945 layer_factory.hpp:77] Creating layer embedding_fc1
I1104 23:48:53.612848 12945 net.cpp:84] Creating Layer embedding_fc1
I1104 23:48:53.612850 12945 net.cpp:406] embedding_fc1 <- extra
I1104 23:48:53.612854 12945 net.cpp:380] embedding_fc1 -> embedding_fc1
I1104 23:48:53.612957 12945 net.cpp:122] Setting up embedding_fc1
I1104 23:48:53.612962 12945 net.cpp:129] Top shape: 1 256 (256)
I1104 23:48:53.612963 12945 net.cpp:137] Memory required for data: 603144
I1104 23:48:53.612969 12945 layer_factory.hpp:77] Creating layer bn_embedding_fc1
I1104 23:48:53.612973 12945 net.cpp:84] Creating Layer bn_embedding_fc1
I1104 23:48:53.612975 12945 net.cpp:406] bn_embedding_fc1 <- embedding_fc1
I1104 23:48:53.612978 12945 net.cpp:367] bn_embedding_fc1 -> embedding_fc1 (in-place)
I1104 23:48:53.613137 12945 net.cpp:122] Setting up bn_embedding_fc1
I1104 23:48:53.613140 12945 net.cpp:129] Top shape: 1 256 (256)
I1104 23:48:53.613142 12945 net.cpp:137] Memory required for data: 604168
I1104 23:48:53.613147 12945 layer_factory.hpp:77] Creating layer scale_embedding_fc1
I1104 23:48:53.613152 12945 net.cpp:84] Creating Layer scale_embedding_fc1
I1104 23:48:53.613153 12945 net.cpp:406] scale_embedding_fc1 <- embedding_fc1
I1104 23:48:53.613157 12945 net.cpp:367] scale_embedding_fc1 -> embedding_fc1 (in-place)
I1104 23:48:53.613186 12945 layer_factory.hpp:77] Creating layer scale_embedding_fc1
I1104 23:48:53.613276 12945 net.cpp:122] Setting up scale_embedding_fc1
I1104 23:48:53.613278 12945 net.cpp:129] Top shape: 1 256 (256)
I1104 23:48:53.613281 12945 net.cpp:137] Memory required for data: 605192
I1104 23:48:53.613283 12945 layer_factory.hpp:77] Creating layer relu_embedding_fc1
I1104 23:48:53.613287 12945 net.cpp:84] Creating Layer relu_embedding_fc1
I1104 23:48:53.613289 12945 net.cpp:406] relu_embedding_fc1 <- embedding_fc1
I1104 23:48:53.613297 12945 net.cpp:367] relu_embedding_fc1 -> embedding_fc1 (in-place)
I1104 23:48:53.613696 12945 net.cpp:122] Setting up relu_embedding_fc1
I1104 23:48:53.613701 12945 net.cpp:129] Top shape: 1 256 (256)
I1104 23:48:53.613703 12945 net.cpp:137] Memory required for data: 606216
I1104 23:48:53.613705 12945 layer_factory.hpp:77] Creating layer embedding_fc2
I1104 23:48:53.613708 12945 net.cpp:84] Creating Layer embedding_fc2
I1104 23:48:53.613710 12945 net.cpp:406] embedding_fc2 <- embedding_fc1
I1104 23:48:53.613713 12945 net.cpp:380] embedding_fc2 -> embedding_fc2
I1104 23:48:53.613807 12945 net.cpp:122] Setting up embedding_fc2
I1104 23:48:53.613811 12945 net.cpp:129] Top shape: 1 1 (1)
I1104 23:48:53.613812 12945 net.cpp:137] Memory required for data: 606220
I1104 23:48:53.613817 12945 layer_factory.hpp:77] Creating layer embedding_fc2_embedding_fc2_0_split
I1104 23:48:53.613821 12945 net.cpp:84] Creating Layer embedding_fc2_embedding_fc2_0_split
I1104 23:48:53.613822 12945 net.cpp:406] embedding_fc2_embedding_fc2_0_split <- embedding_fc2
I1104 23:48:53.613826 12945 net.cpp:380] embedding_fc2_embedding_fc2_0_split -> embedding_fc2_embedding_fc2_0_split_0
I1104 23:48:53.613831 12945 net.cpp:380] embedding_fc2_embedding_fc2_0_split -> embedding_fc2_embedding_fc2_0_split_1
I1104 23:48:53.613834 12945 net.cpp:380] embedding_fc2_embedding_fc2_0_split -> embedding_fc2_embedding_fc2_0_split_2
I1104 23:48:53.613837 12945 net.cpp:380] embedding_fc2_embedding_fc2_0_split -> embedding_fc2_embedding_fc2_0_split_3
I1104 23:48:53.613842 12945 net.cpp:380] embedding_fc2_embedding_fc2_0_split -> embedding_fc2_embedding_fc2_0_split_4
I1104 23:48:53.613845 12945 net.cpp:380] embedding_fc2_embedding_fc2_0_split -> embedding_fc2_embedding_fc2_0_split_5
I1104 23:48:53.613916 12945 net.cpp:122] Setting up embedding_fc2_embedding_fc2_0_split
I1104 23:48:53.613919 12945 net.cpp:129] Top shape: 1 1 (1)
I1104 23:48:53.613921 12945 net.cpp:129] Top shape: 1 1 (1)
I1104 23:48:53.613924 12945 net.cpp:129] Top shape: 1 1 (1)
I1104 23:48:53.613925 12945 net.cpp:129] Top shape: 1 1 (1)
I1104 23:48:53.613927 12945 net.cpp:129] Top shape: 1 1 (1)
I1104 23:48:53.613929 12945 net.cpp:129] Top shape: 1 1 (1)
I1104 23:48:53.613931 12945 net.cpp:137] Memory required for data: 606244
I1104 23:48:53.613934 12945 layer_factory.hpp:77] Creating layer conv1
I1104 23:48:53.613938 12945 net.cpp:84] Creating Layer conv1
I1104 23:48:53.613940 12945 net.cpp:406] conv1 <- data
I1104 23:48:53.613943 12945 net.cpp:380] conv1 -> conv1
I1104 23:48:53.614385 12945 net.cpp:122] Setting up conv1
I1104 23:48:53.614389 12945 net.cpp:129] Top shape: 1 96 54 54 (279936)
I1104 23:48:53.614392 12945 net.cpp:137] Memory required for data: 1725988
I1104 23:48:53.614394 12945 layer_factory.hpp:77] Creating layer bn_conv1
I1104 23:48:53.614399 12945 net.cpp:84] Creating Layer bn_conv1
I1104 23:48:53.614401 12945 net.cpp:406] bn_conv1 <- conv1
I1104 23:48:53.614403 12945 net.cpp:367] bn_conv1 -> conv1 (in-place)
I1104 23:48:53.614573 12945 net.cpp:122] Setting up bn_conv1
I1104 23:48:53.614576 12945 net.cpp:129] Top shape: 1 96 54 54 (279936)
I1104 23:48:53.614578 12945 net.cpp:137] Memory required for data: 2845732
I1104 23:48:53.614583 12945 layer_factory.hpp:77] Creating layer scale_conv1
I1104 23:48:53.614585 12945 net.cpp:84] Creating Layer scale_conv1
I1104 23:48:53.614588 12945 net.cpp:406] scale_conv1 <- conv1
I1104 23:48:53.614590 12945 net.cpp:367] scale_conv1 -> conv1 (in-place)
I1104 23:48:53.614622 12945 layer_factory.hpp:77] Creating layer scale_conv1
I1104 23:48:53.614723 12945 net.cpp:122] Setting up scale_conv1
I1104 23:48:53.614727 12945 net.cpp:129] Top shape: 1 96 54 54 (279936)
I1104 23:48:53.614729 12945 net.cpp:137] Memory required for data: 3965476
I1104 23:48:53.614732 12945 layer_factory.hpp:77] Creating layer relu1
I1104 23:48:53.614734 12945 net.cpp:84] Creating Layer relu1
I1104 23:48:53.614737 12945 net.cpp:406] relu1 <- conv1
I1104 23:48:53.614739 12945 net.cpp:367] relu1 -> conv1 (in-place)
I1104 23:48:53.615051 12945 net.cpp:122] Setting up relu1
I1104 23:48:53.615061 12945 net.cpp:129] Top shape: 1 96 54 54 (279936)
I1104 23:48:53.615064 12945 net.cpp:137] Memory required for data: 5085220
I1104 23:48:53.615067 12945 layer_factory.hpp:77] Creating layer pool1
I1104 23:48:53.615069 12945 net.cpp:84] Creating Layer pool1
I1104 23:48:53.615072 12945 net.cpp:406] pool1 <- conv1
I1104 23:48:53.615075 12945 net.cpp:380] pool1 -> pool1
I1104 23:48:53.615111 12945 net.cpp:122] Setting up pool1
I1104 23:48:53.615115 12945 net.cpp:129] Top shape: 1 96 27 27 (69984)
I1104 23:48:53.615116 12945 net.cpp:137] Memory required for data: 5365156
I1104 23:48:53.615118 12945 layer_factory.hpp:77] Creating layer filter_ip2
I1104 23:48:53.615123 12945 net.cpp:84] Creating Layer filter_ip2
I1104 23:48:53.615124 12945 net.cpp:406] filter_ip2 <- embedding_fc2_embedding_fc2_0_split_0
I1104 23:48:53.615128 12945 net.cpp:380] filter_ip2 -> filter_ip2
I1104 23:48:53.618144 12945 net.cpp:122] Setting up filter_ip2
I1104 23:48:53.618153 12945 net.cpp:129] Top shape: 1 307200 (307200)
I1104 23:48:53.618155 12945 net.cpp:137] Memory required for data: 6593956
I1104 23:48:53.618162 12945 layer_factory.hpp:77] Creating layer conv2
I1104 23:48:53.618168 12945 net.cpp:84] Creating Layer conv2
I1104 23:48:53.618171 12945 net.cpp:406] conv2 <- pool1
I1104 23:48:53.618175 12945 net.cpp:406] conv2 <- filter_ip2
I1104 23:48:53.618177 12945 net.cpp:380] conv2 -> conv2
I1104 23:48:53.620677 12945 net.cpp:122] Setting up conv2
I1104 23:48:53.620684 12945 net.cpp:129] Top shape: 1 256 27 27 (186624)
I1104 23:48:53.620687 12945 net.cpp:137] Memory required for data: 7340452
I1104 23:48:53.620689 12945 layer_factory.hpp:77] Creating layer bn_conv2
I1104 23:48:53.620694 12945 net.cpp:84] Creating Layer bn_conv2
I1104 23:48:53.620697 12945 net.cpp:406] bn_conv2 <- conv2
I1104 23:48:53.620699 12945 net.cpp:367] bn_conv2 -> conv2 (in-place)
I1104 23:48:53.620875 12945 net.cpp:122] Setting up bn_conv2
I1104 23:48:53.620879 12945 net.cpp:129] Top shape: 1 256 27 27 (186624)
I1104 23:48:53.620880 12945 net.cpp:137] Memory required for data: 8086948
I1104 23:48:53.620884 12945 layer_factory.hpp:77] Creating layer scale_conv2
I1104 23:48:53.620888 12945 net.cpp:84] Creating Layer scale_conv2
I1104 23:48:53.620890 12945 net.cpp:406] scale_conv2 <- conv2
I1104 23:48:53.620893 12945 net.cpp:367] scale_conv2 -> conv2 (in-place)
I1104 23:48:53.620926 12945 layer_factory.hpp:77] Creating layer scale_conv2
I1104 23:48:53.621023 12945 net.cpp:122] Setting up scale_conv2
I1104 23:48:53.621027 12945 net.cpp:129] Top shape: 1 256 27 27 (186624)
I1104 23:48:53.621029 12945 net.cpp:137] Memory required for data: 8833444
I1104 23:48:53.621032 12945 layer_factory.hpp:77] Creating layer relu2
I1104 23:48:53.621037 12945 net.cpp:84] Creating Layer relu2
I1104 23:48:53.621039 12945 net.cpp:406] relu2 <- conv2
I1104 23:48:53.621042 12945 net.cpp:367] relu2 -> conv2 (in-place)
I1104 23:48:53.621603 12945 net.cpp:122] Setting up relu2
I1104 23:48:53.621610 12945 net.cpp:129] Top shape: 1 256 27 27 (186624)
I1104 23:48:53.621613 12945 net.cpp:137] Memory required for data: 9579940
I1104 23:48:53.621615 12945 layer_factory.hpp:77] Creating layer pool2
I1104 23:48:53.621619 12945 net.cpp:84] Creating Layer pool2
I1104 23:48:53.621621 12945 net.cpp:406] pool2 <- conv2
I1104 23:48:53.621625 12945 net.cpp:380] pool2 -> pool2
I1104 23:48:53.621665 12945 net.cpp:122] Setting up pool2
I1104 23:48:53.621668 12945 net.cpp:129] Top shape: 1 256 13 13 (43264)
I1104 23:48:53.621670 12945 net.cpp:137] Memory required for data: 9752996
I1104 23:48:53.621672 12945 layer_factory.hpp:77] Creating layer filter_ip3
I1104 23:48:53.621677 12945 net.cpp:84] Creating Layer filter_ip3
I1104 23:48:53.621680 12945 net.cpp:406] filter_ip3 <- embedding_fc2_embedding_fc2_0_split_1
I1104 23:48:53.621682 12945 net.cpp:380] filter_ip3 -> filter_ip3
I1104 23:48:53.629215 12945 net.cpp:122] Setting up filter_ip3
I1104 23:48:53.629228 12945 net.cpp:129] Top shape: 1 884736 (884736)
I1104 23:48:53.629230 12945 net.cpp:137] Memory required for data: 13291940
I1104 23:48:53.629251 12945 layer_factory.hpp:77] Creating layer conv3
I1104 23:48:53.629261 12945 net.cpp:84] Creating Layer conv3
I1104 23:48:53.629264 12945 net.cpp:406] conv3 <- pool2
I1104 23:48:53.629268 12945 net.cpp:406] conv3 <- filter_ip3
I1104 23:48:53.629271 12945 net.cpp:380] conv3 -> conv3
I1104 23:48:53.635670 12945 net.cpp:122] Setting up conv3
I1104 23:48:53.635685 12945 net.cpp:129] Top shape: 1 384 13 13 (64896)
I1104 23:48:53.635687 12945 net.cpp:137] Memory required for data: 13551524
I1104 23:48:53.635692 12945 layer_factory.hpp:77] Creating layer bn_conv3
I1104 23:48:53.635699 12945 net.cpp:84] Creating Layer bn_conv3
I1104 23:48:53.635701 12945 net.cpp:406] bn_conv3 <- conv3
I1104 23:48:53.635704 12945 net.cpp:367] bn_conv3 -> conv3 (in-place)
I1104 23:48:53.635929 12945 net.cpp:122] Setting up bn_conv3
I1104 23:48:53.635933 12945 net.cpp:129] Top shape: 1 384 13 13 (64896)
I1104 23:48:53.635936 12945 net.cpp:137] Memory required for data: 13811108
I1104 23:48:53.635941 12945 layer_factory.hpp:77] Creating layer scale_conv3
I1104 23:48:53.635944 12945 net.cpp:84] Creating Layer scale_conv3
I1104 23:48:53.635946 12945 net.cpp:406] scale_conv3 <- conv3
I1104 23:48:53.635949 12945 net.cpp:367] scale_conv3 -> conv3 (in-place)
I1104 23:48:53.635979 12945 layer_factory.hpp:77] Creating layer scale_conv3
I1104 23:48:53.636081 12945 net.cpp:122] Setting up scale_conv3
I1104 23:48:53.636085 12945 net.cpp:129] Top shape: 1 384 13 13 (64896)
I1104 23:48:53.636086 12945 net.cpp:137] Memory required for data: 14070692
I1104 23:48:53.636093 12945 layer_factory.hpp:77] Creating layer relu3
I1104 23:48:53.636096 12945 net.cpp:84] Creating Layer relu3
I1104 23:48:53.636098 12945 net.cpp:406] relu3 <- conv3
I1104 23:48:53.636101 12945 net.cpp:367] relu3 -> conv3 (in-place)
I1104 23:48:53.636426 12945 net.cpp:122] Setting up relu3
I1104 23:48:53.636431 12945 net.cpp:129] Top shape: 1 384 13 13 (64896)
I1104 23:48:53.636435 12945 net.cpp:137] Memory required for data: 14330276
I1104 23:48:53.636435 12945 layer_factory.hpp:77] Creating layer filter_ip4
I1104 23:48:53.636440 12945 net.cpp:84] Creating Layer filter_ip4
I1104 23:48:53.636442 12945 net.cpp:406] filter_ip4 <- embedding_fc2_embedding_fc2_0_split_2
I1104 23:48:53.636446 12945 net.cpp:380] filter_ip4 -> filter_ip4
I1104 23:48:53.642091 12945 net.cpp:122] Setting up filter_ip4
I1104 23:48:53.642102 12945 net.cpp:129] Top shape: 1 663552 (663552)
I1104 23:48:53.642104 12945 net.cpp:137] Memory required for data: 16984484
I1104 23:48:53.642112 12945 layer_factory.hpp:77] Creating layer conv4
I1104 23:48:53.642119 12945 net.cpp:84] Creating Layer conv4
I1104 23:48:53.642122 12945 net.cpp:406] conv4 <- conv3
I1104 23:48:53.642125 12945 net.cpp:406] conv4 <- filter_ip4
I1104 23:48:53.642129 12945 net.cpp:380] conv4 -> conv4
I1104 23:48:53.646905 12945 net.cpp:122] Setting up conv4
I1104 23:48:53.646916 12945 net.cpp:129] Top shape: 1 384 13 13 (64896)
I1104 23:48:53.646919 12945 net.cpp:137] Memory required for data: 17244068
I1104 23:48:53.646924 12945 layer_factory.hpp:77] Creating layer bn_conv4
I1104 23:48:53.646929 12945 net.cpp:84] Creating Layer bn_conv4
I1104 23:48:53.646932 12945 net.cpp:406] bn_conv4 <- conv4
I1104 23:48:53.646935 12945 net.cpp:367] bn_conv4 -> conv4 (in-place)
I1104 23:48:53.647111 12945 net.cpp:122] Setting up bn_conv4
I1104 23:48:53.647115 12945 net.cpp:129] Top shape: 1 384 13 13 (64896)
I1104 23:48:53.647117 12945 net.cpp:137] Memory required for data: 17503652
I1104 23:48:53.647121 12945 layer_factory.hpp:77] Creating layer scale_conv4
I1104 23:48:53.647126 12945 net.cpp:84] Creating Layer scale_conv4
I1104 23:48:53.647128 12945 net.cpp:406] scale_conv4 <- conv4
I1104 23:48:53.647131 12945 net.cpp:367] scale_conv4 -> conv4 (in-place)
I1104 23:48:53.647161 12945 layer_factory.hpp:77] Creating layer scale_conv4
I1104 23:48:53.647259 12945 net.cpp:122] Setting up scale_conv4
I1104 23:48:53.647264 12945 net.cpp:129] Top shape: 1 384 13 13 (64896)
I1104 23:48:53.647264 12945 net.cpp:137] Memory required for data: 17763236
I1104 23:48:53.647284 12945 layer_factory.hpp:77] Creating layer relu4
I1104 23:48:53.647289 12945 net.cpp:84] Creating Layer relu4
I1104 23:48:53.647290 12945 net.cpp:406] relu4 <- conv4
I1104 23:48:53.647294 12945 net.cpp:367] relu4 -> conv4 (in-place)
I1104 23:48:53.647625 12945 net.cpp:122] Setting up relu4
I1104 23:48:53.647630 12945 net.cpp:129] Top shape: 1 384 13 13 (64896)
I1104 23:48:53.647632 12945 net.cpp:137] Memory required for data: 18022820
I1104 23:48:53.647634 12945 layer_factory.hpp:77] Creating layer filter_ip5
I1104 23:48:53.647639 12945 net.cpp:84] Creating Layer filter_ip5
I1104 23:48:53.647641 12945 net.cpp:406] filter_ip5 <- embedding_fc2_embedding_fc2_0_split_3
I1104 23:48:53.647644 12945 net.cpp:380] filter_ip5 -> filter_ip5
I1104 23:48:53.651646 12945 net.cpp:122] Setting up filter_ip5
I1104 23:48:53.651655 12945 net.cpp:129] Top shape: 1 442368 (442368)
I1104 23:48:53.651657 12945 net.cpp:137] Memory required for data: 19792292
I1104 23:48:53.651662 12945 layer_factory.hpp:77] Creating layer conv5
I1104 23:48:53.651669 12945 net.cpp:84] Creating Layer conv5
I1104 23:48:53.651672 12945 net.cpp:406] conv5 <- conv4
I1104 23:48:53.651675 12945 net.cpp:406] conv5 <- filter_ip5
I1104 23:48:53.651679 12945 net.cpp:380] conv5 -> conv5
I1104 23:48:53.655012 12945 net.cpp:122] Setting up conv5
I1104 23:48:53.655020 12945 net.cpp:129] Top shape: 1 256 13 13 (43264)
I1104 23:48:53.655023 12945 net.cpp:137] Memory required for data: 19965348
I1104 23:48:53.655027 12945 layer_factory.hpp:77] Creating layer bn_conv5
I1104 23:48:53.655032 12945 net.cpp:84] Creating Layer bn_conv5
I1104 23:48:53.655035 12945 net.cpp:406] bn_conv5 <- conv5
I1104 23:48:53.655038 12945 net.cpp:367] bn_conv5 -> conv5 (in-place)
I1104 23:48:53.655215 12945 net.cpp:122] Setting up bn_conv5
I1104 23:48:53.655218 12945 net.cpp:129] Top shape: 1 256 13 13 (43264)
I1104 23:48:53.655220 12945 net.cpp:137] Memory required for data: 20138404
I1104 23:48:53.655225 12945 layer_factory.hpp:77] Creating layer scale_conv5
I1104 23:48:53.655228 12945 net.cpp:84] Creating Layer scale_conv5
I1104 23:48:53.655230 12945 net.cpp:406] scale_conv5 <- conv5
I1104 23:48:53.655249 12945 net.cpp:367] scale_conv5 -> conv5 (in-place)
I1104 23:48:53.655282 12945 layer_factory.hpp:77] Creating layer scale_conv5
I1104 23:48:53.655395 12945 net.cpp:122] Setting up scale_conv5
I1104 23:48:53.655398 12945 net.cpp:129] Top shape: 1 256 13 13 (43264)
I1104 23:48:53.655400 12945 net.cpp:137] Memory required for data: 20311460
I1104 23:48:53.655403 12945 layer_factory.hpp:77] Creating layer relu5
I1104 23:48:53.655409 12945 net.cpp:84] Creating Layer relu5
I1104 23:48:53.655411 12945 net.cpp:406] relu5 <- conv5
I1104 23:48:53.655414 12945 net.cpp:367] relu5 -> conv5 (in-place)
I1104 23:48:53.655907 12945 net.cpp:122] Setting up relu5
I1104 23:48:53.655915 12945 net.cpp:129] Top shape: 1 256 13 13 (43264)
I1104 23:48:53.655916 12945 net.cpp:137] Memory required for data: 20484516
I1104 23:48:53.655918 12945 layer_factory.hpp:77] Creating layer pool5
I1104 23:48:53.655923 12945 net.cpp:84] Creating Layer pool5
I1104 23:48:53.655925 12945 net.cpp:406] pool5 <- conv5
I1104 23:48:53.655928 12945 net.cpp:380] pool5 -> pool5
I1104 23:48:53.655966 12945 net.cpp:122] Setting up pool5
I1104 23:48:53.655970 12945 net.cpp:129] Top shape: 1 256 6 6 (9216)
I1104 23:48:53.655972 12945 net.cpp:137] Memory required for data: 20521380
I1104 23:48:53.655973 12945 layer_factory.hpp:77] Creating layer filter_ip6
I1104 23:48:53.655978 12945 net.cpp:84] Creating Layer filter_ip6
I1104 23:48:53.655980 12945 net.cpp:406] filter_ip6 <- embedding_fc2_embedding_fc2_0_split_4
I1104 23:48:53.655983 12945 net.cpp:380] filter_ip6 -> filter_ip6
I1104 23:48:53.693748 12945 net.cpp:122] Setting up filter_ip6
I1104 23:48:53.693768 12945 net.cpp:129] Top shape: 1 4718592 (4718592)
I1104 23:48:53.693770 12945 net.cpp:137] Memory required for data: 39395748
I1104 23:48:53.693778 12945 layer_factory.hpp:77] Creating layer feat0
I1104 23:48:53.693789 12945 net.cpp:84] Creating Layer feat0
I1104 23:48:53.693790 12945 net.cpp:406] feat0 <- pool5
I1104 23:48:53.693814 12945 net.cpp:406] feat0 <- filter_ip6
I1104 23:48:53.693819 12945 net.cpp:380] feat0 -> feat0
I1104 23:48:53.726241 12945 net.cpp:122] Setting up feat0
I1104 23:48:53.726258 12945 net.cpp:129] Top shape: 1 512 1 1 (512)
I1104 23:48:53.726260 12945 net.cpp:137] Memory required for data: 39397796
I1104 23:48:53.726265 12945 layer_factory.hpp:77] Creating layer bn_feat0
I1104 23:48:53.726272 12945 net.cpp:84] Creating Layer bn_feat0
I1104 23:48:53.726275 12945 net.cpp:406] bn_feat0 <- feat0
I1104 23:48:53.726279 12945 net.cpp:367] bn_feat0 -> feat0 (in-place)
I1104 23:48:53.726461 12945 net.cpp:122] Setting up bn_feat0
I1104 23:48:53.726464 12945 net.cpp:129] Top shape: 1 512 1 1 (512)
I1104 23:48:53.726466 12945 net.cpp:137] Memory required for data: 39399844
I1104 23:48:53.726471 12945 layer_factory.hpp:77] Creating layer scale_feat0
I1104 23:48:53.726475 12945 net.cpp:84] Creating Layer scale_feat0
I1104 23:48:53.726477 12945 net.cpp:406] scale_feat0 <- feat0
I1104 23:48:53.726480 12945 net.cpp:367] scale_feat0 -> feat0 (in-place)
I1104 23:48:53.726511 12945 layer_factory.hpp:77] Creating layer scale_feat0
I1104 23:48:53.726613 12945 net.cpp:122] Setting up scale_feat0
I1104 23:48:53.726615 12945 net.cpp:129] Top shape: 1 512 1 1 (512)
I1104 23:48:53.726617 12945 net.cpp:137] Memory required for data: 39401892
I1104 23:48:53.726621 12945 layer_factory.hpp:77] Creating layer relu_feat0
I1104 23:48:53.726624 12945 net.cpp:84] Creating Layer relu_feat0
I1104 23:48:53.726626 12945 net.cpp:406] relu_feat0 <- feat0
I1104 23:48:53.726629 12945 net.cpp:367] relu_feat0 -> feat0 (in-place)
I1104 23:48:53.726991 12945 net.cpp:122] Setting up relu_feat0
I1104 23:48:53.726996 12945 net.cpp:129] Top shape: 1 512 1 1 (512)
I1104 23:48:53.726999 12945 net.cpp:137] Memory required for data: 39403940
I1104 23:48:53.726999 12945 layer_factory.hpp:77] Creating layer filter_ip7
I1104 23:48:53.727005 12945 net.cpp:84] Creating Layer filter_ip7
I1104 23:48:53.727006 12945 net.cpp:406] filter_ip7 <- embedding_fc2_embedding_fc2_0_split_5
I1104 23:48:53.727010 12945 net.cpp:380] filter_ip7 -> filter_ip7
I1104 23:48:53.727114 12945 net.cpp:122] Setting up filter_ip7
I1104 23:48:53.727118 12945 net.cpp:129] Top shape: 1 512 (512)
I1104 23:48:53.727119 12945 net.cpp:137] Memory required for data: 39405988
I1104 23:48:53.727123 12945 layer_factory.hpp:77] Creating layer feat1
I1104 23:48:53.727128 12945 net.cpp:84] Creating Layer feat1
I1104 23:48:53.727131 12945 net.cpp:406] feat1 <- feat0
I1104 23:48:53.727133 12945 net.cpp:406] feat1 <- filter_ip7
I1104 23:48:53.727136 12945 net.cpp:380] feat1 -> feat1
I1104 23:48:53.727371 12945 net.cpp:122] Setting up feat1
I1104 23:48:53.727375 12945 net.cpp:129] Top shape: 1 1 1 1 (1)
I1104 23:48:53.727377 12945 net.cpp:137] Memory required for data: 39405992
I1104 23:48:53.727385 12945 net.cpp:200] feat1 does not need backward computation.
I1104 23:48:53.727387 12945 net.cpp:200] filter_ip7 does not need backward computation.
I1104 23:48:53.727391 12945 net.cpp:200] relu_feat0 does not need backward computation.
I1104 23:48:53.727391 12945 net.cpp:200] scale_feat0 does not need backward computation.
…
